MSModel/best_model_ms_lin.pt (torch, 40367 bytes, 6 tensors)

model.0.weight f4 [64, 41]
00000000: fd4b c83d c72e 733e 1763 df3e 894f 00bf
00000010: 3f7d 7d3f 6577 d53d 65ca 70be 6a64 b93d
00000020: 371f 683d 6e52 563e b00f fb3d 5e16 bc3d
00000030: e659 513e 099b b83f b5f4 b93f 245f 9fbf
00000040: 1aa4 6ebe 4c36 be3f 9d36 453e d311 233d
00000050: 2e0b 00be d2c7 ab3d b8ad 723d 7e21 e33d
00000060: aba1 1d3d fe3c e13d f484 a73d 6da7 e53e
00000070: d296 fd3d 458c b9bd 9bbe a73e 85a5 e33f
00000080: 5aad cbbf 29b5 9c3e ca8b a7be 31b9 a53d
00000090: ed8f 203e 0807 733d 5ba8 77bf 8358 5f3f
000000a0: 969b ed3d e53c d43e 9f6c b63e fc64 b5be
000000b0: 863c 4a3c 9208 413f 8e10 14bf a05d 33bc
000000c0: 0e0a 2d3e 23c5 483e 75ad c73d d43a 4d3e
000000d0: b0b1 453e 6d03 493d a0ad 8b3e 55c9 dd3e
000000e0: 7329 cbbd 5100 333d 5881 893e 2101 71bf
000000f0: 4bb5 2a3f 2741 f03c cf6d 2dbe d96e 61be
00000100: 350b 7abe 0bc2 c43d 833b 813d 6f08 e33d
00000110: 2044 163d 568c c43e 8c8b c9be 3d60 dabe
00000120: ff3e 0cbe 0cc0 b63e 49d2 503f 9de5 ffbc
00000130: 7587 3bbf ad9b 563f f9e3 8a3d 5693 973f
00000140: 2438 4cbf b4ca 43bd a73c 96be 9b5e 573d
00000150: dde4 1e3f e9a8 febe dc93 673e 2ee7 91be
00000160: a832 f2be 0364 273e 4986 31bc c321 233c
00000170: 9198 73bd 4941 0f3d 5a86 f7bc 0949 843e
00000180: 1b05 c33e e8e6 eabe fd56 95be 3aec e63e
00000190: b20d 713e a0fb 8a3d 7b91 c4be d387 fd3e
000001a0: 1701 dc3e 21ba 863e 9eb5 603d 5337 b6bd
000001b0: fe22 9ebc 118a 073e 52eb b0be 1c54 a03d
000001c0: 30f2 f7bd db04 093e 00dc 1cbd 2809 0bbe
000001d0: fe76 d93e 60b1 ba3e bf59 01bf ffe2 81bd
000001e0: 7b7c 303f 58f6 8b3d dc67 f03d 84e2 44bd
000001f0: 8f55 9d3d d561 21be 72b6 2ebe 480e a4bd
00000200: b684 163c 1c8f c23d bc3f 043d 7ffe 823d
00000210: bf02 2abe 9091 01be c9ed 3f3d 64a0 08be
00000220: 56aa b83c 3f27 263d 1774 e8bd 4934 63bd
00000230: fc82 733c 08d7 f1bd 24c9 29bd bfd3 4c3d
00000240: 825b 1abe 301b 24be 412e dcbd 8a1c 47bd
00000250: 1f10 593b 76af b5bc 4cd9 5a3d 0378 af3d
00000260: aa04 f3bc 8469 34bd eeff 25bd dd55 01bd
00000270: 1e9b f0bd b371 48bd 48f6 b2bd 8731 aebd
00000280: 2d17 18bc fb8a dbbd e8c9 85bb 82e4 50bd
00000290: f337 173e 00f7 093f 06ea 1ebf a8e0 3fbf
000002a0: d523 8abf 748e 7e3f d834 3d3f d586 d5bc
000002b0: d114 3c3d f9f2 cd3d 967b b23d 7ba0 f73d
000002c0: b979 6f3d 1ffd 7bbd a8a9 d4bd dea1 993e
000002d0: c48c 1e3f 91f5 75be 1f1c 853d e21d 67bd
000002e0: 4507 1f3f e3bb d7bc 0f27 6abd 7ecf d6bc
000002f0: d3b1 013e cb33 d73d 9bc7 143d 4d50 f7be
00000300: 8ea0 5a3e 2456 cb3e 3c66 ff3d d21e 8ebe
00000310: 443f f23e 95ce 1cbe f944 d33e 681c e73e
00000320: ab30 b9be 0425 d63d 4355 573e 7b54 543e
00000330: a7a4 8e3d a744 f4bd c3ae a1bd 508e 42bb
00000340: f3e4 5ebc 5bf4 383d bd2d 1f3c c236 33bc
00000350: 0c88 47bd 93f9 8b3d bec6 1a3d ca27 ddbd
00000360: b0ec 3ebe dfb4 5ebd cb02 bdbc 335e 13be
00000370: 040e a83d d5a8 cb3c 1ce8 15be ea23 26be
00000380: a205 08bd 9aac 713d 2dbe 15be afc0 6fbc
00000390: 6419 0ebe a3cf c13c a270 8cbc e059 f63c
000003a0: 87a7 0fbe 9d03 463d 3c5a a2bd 110d b03d
000003b0: c75c 46be 96d8 a1bc 446d a3bd b7ca 9e3d
000003c0: 7baf 32bd 2d6f 08be 509a a73d 85ac 853c
000003d0: 036a 83bd 8e5b c53c 6723 d0bc f34a 803e
000003e0: a4c3 f23e a40f efbc cead 0d3e 7d56 85be
000003f0: 585f 0dba 518a fe3e fef0 5b3e 13a9 273e
0.097801186 0.23748313 0.43630287 -0.5012136 0.99019235 0.10423163 -0.23514707 0.090523556
0.056670394 0.20929882 0.122588515 0.09183954 0.2044445 1.4422313 1.4527804 -1.245091
-0.23304787 1.486032 0.19259115 0.03981192 -0.12504265 0.08387722 0.059247702 0.110903725
0.038484257 0.109979615 0.08179656 0.44854298 0.12382282 -0.090599574 0.32762608 1.7784888
-1.5912278 0.30606964 -0.32723838 0.08091963 0.15679903 0.059332877 -0.96741265 0.87244433
0.11601941 0.4145271 0.35629746 -0.35428607 0.0123435315 0.754037 -0.5783776 -0.010947615
0.16898367 0.19606452 0.09749881 0.20041972 0.19306064 0.049075533 0.27280903 0.43317667
-0.09920015 0.043701474 0.26856494 -0.9414235 0.6668288 0.029327942 -0.1693642 -0.22014941
-0.24418338 0.09607323 0.06310179 0.11085593 0.036686063 0.38388318 -0.39364278 -0.4265155
-0.13695906 0.35693395 0.8157087 -0.031237418 -0.73253566 0.8383129 0.067817636 1.1841838
-0.79773164 -0.047800735 -0.2934315 0.052580457 0.6206797 -0.49738243 0.22614998 -0.2849669
-0.47304273 0.16346745 -0.010835239 0.00995678 -0.05947167 0.03497437 -0.030215431 0.2583697
0.38089833 -0.45879292 -0.2916793 0.45102102 0.2354038 0.06786275 -0.38392243 0.49517688
0.4296958 0.2631388 0.054860704 -0.08897271 -0.019303795 0.13236262 -0.34554535 0.078285426
-0.121067405 0.13380758 -0.038295746 -0.13577712 0.42473596 0.3646345 -0.50527567 -0.06342124
0.6893994 0.06834096 0.117385596 -0.048067585 0.07682335 -0.15759976 -0.17061785 -0.080105364
0.009186914 0.09499952 0.032287344 0.063961975 -0.1660261 -0.12653184 0.04685763 -0.13342434
0.02254216 0.04056477 -0.113502674 -0.055469785 0.014862772 -0.11808592 -0.04145159 0.050006624
-0.1507397 -0.16025996 -0.1075101 -0.0486112 0.0033121181 -0.022178393 0.053429887 0.08567812
-0.02966531 -0.04404594 -0.040527277 -0.031576026 -0.11748336 -0.048936557 -0.08738381 -0.0850554
-0.009282869 -0.10719868 -0.004082907 -0.050999172 0.14767437 0.5389252 -0.6207584 -0.74952173
-1.0792185 0.99436116 0.7390876 -0.02606527 0.04591829 0.10056109 0.087149784 0.12091156
0.058465693 -0.061520692 -0.10383922 0.30006307 0.6193354 -0.24019457 0.06499504 -0.056424983
0.6212047 -0.026334709 -0.057166155 -0.026221987 0.12665491 0.105079256 0.03632317 -0.48303452
0.21350309 0.39714158 0.124706715 -0.2775789 0.47313893 -0.1531318 0.4126356 0.4513886
-0.36169943 0.10456279 0.21028619 0.20735352 0.06964999 -0.11927157 -0.07894661 -0.0029686876
-0.01360439 0.04515491 0.009715495 -0.010938348 -0.04871373 0.06834712 0.03778719 -0.10798605
-0.18644977 -0.05437171 -0.02307262 -0.14391403 0.08205798 0.024860779 -0.14639324 -0.16224638
-0.033208497 0.059002496 -0.14623328 -0.014633342 -0.13876873 0.02365858 -0.017143551 0.030072153
-0.1402875 0.04834329 -0.07927367 0.08596242 -0.19371329 -0.019756597 -0.07979825 0.077535085
-0.043624382 -0.1332366 0.0818373 0.016317615 -0.064167045 0.024091508 -0.025407506 0.25057182
0.47414887 -0.029182263 0.13835832 -0.26042548 -0.00053929305 0.49714902 0.2147865 0.1637309

model.0.bias f4 [64]
00000000: 6730 b53e 7d8d 103f 17bf de3e 804b 673d
00000010: e9f6 ea3e 248c 3dbc 5614 863e d7a8 f43d
00000020: 15d4 223e 4a35 a03e 3f92 973e c1de 753e
00000030: ed0d 373d 14f8 073f a858 cd3e 32cc 003d
00000040: 3578 e1bd 784b 973d 2d53 813e 9f36 333e
00000050: dd14 23bf c989 33bf f9b4 3abf c248 2c3f
00000060: 0ee4 ee3d 0c53 8d3e b299 093f 276c 833d
00000070: cbd0 a2bd 0e7a 553f d316 243d 5ffe 2d3f
00000080: dea2 b03d b13b f33d a07d f0bd 3e51 2c3c
00000090: 2d70 06bf 4e20 3bbd 6a87 15be ed75 c23e
000000a0: 32f2 823e ff1d aa3d 43db e23d 43a1 cb3e
000000b0: 8a38 113b 3ed1 bb3e 7805 80bd ce42 083e
000000c0: 7def c63e eddc a13e 7195 b93e 9826 8a3d
000000d0: d1ac b33e 45e8 813e 3790 aa3e 5df7 48bb
000000e0: fd9d ab3e 3a31 c83e 09da eb3d aa2c f73c
000000f0: 1185 bb3e 5ad0 733e 1d19 7c3c 0f8e 6d3f
0.3538849 0.56465894 0.43505165 0.056468487 0.45891502 -0.011569057 0.2618739 0.11946266
0.15901215 0.31290656 0.29603764 0.24010755 0.044691015 0.5311291 0.40106702 0.031444736
-0.11009256 0.073874414 0.2525877 0.17501305 -0.6370371 -0.7013212 -0.7293239 0.6729852
0.11664592 0.27602422 0.53750145 0.06417113 -0.0794998 0.83389366 0.04006083 0.67966264
0.086248145 0.118766196 -0.11742711 0.0105174165 -0.52514917 -0.045685105 -0.14602438 0.37980595
0.25575405 0.083065026 0.11076977 0.3977147 0.0022158944 0.36683077 -0.06251043 0.13306734
0.3885459 0.31613865 0.36246827 0.067456424 0.35092786 0.2537252 0.33313152 -0.0030665018
0.33518973 0.39100057 0.11516196 0.030172665 0.3662496 0.23809949 0.015386847 0.9279489

model.2.weight f4 [64, 64]
00000000: 5030 03bd 8940 bebd 2225 1ebe b753 98bd
00000010: 1cb1 92be 005a 03bc e0b2 c2bd 80a7 913d
00000020: 6c74 483b 6503 3cbe 3cd8 b83e 62ff 013f
00000030: 6c84 a43e 6438 623f c2d1 353f 4ad3 003e
00000040: e72f 563e ed03 4b3e 358a dcbd c68d 88be
00000050: 3951 1cc0 692a a140 78c7 9140 6e17 7bbd
00000060: 2854 8bbb 9626 9e3e eeff a33e d1cc 10bf
00000070: ba8d c23f a45a db3d 65d7 8d3c bb5d f33d
00000080: d3d1 ec3e dd59 d3bd d05a 8bbd 2a29 dcbd
00000090: e43c a7bf 878e 7b3f c467 143e a664 223e
000000a0: 28c2 0c3f d613 05bf 4d7f 5ebe eb96 53bf
000000b0: 40e5 2fbc c082 6a3e c71e ef3d 14f5 76bd
000000c0: 274c 4e3e 7ca8 dcbe 4aed 7cbe be5b 5abe
000000d0: 5673 8c3d 64f8 1c3e 4dec 973d 47d3 8c3e
000000e0: 133c 3a3e 237e 9abe 769f 59be 26a5 3cbd
000000f0: d02e 1b3d b5ad 443d 4973 773e 56ae d1be
00000100: 74ff 8f3e 347e 0fbf aa85 793e ae82 19ba
00000110: ce34 7dbe fb05 803c 52ae b9be 8311 36be
00000120: e5dc 06bf 92c2 133e 64b0 f53e b959 58bf
00000130: 7f19 2e3f 1cd7 92be 8ff8 fc3e ca00 cf3e
00000140: 6087 253f 0317 0b3d 4156 7ebd 76b0 1fbf
00000150: 1a18 373f 9482 d53e ff83 0f40 1653 de3e
00000160: 2bfb 8e3e 9eb3 9abe 534a ddbe c81f 013f
00000170: dd69 763e 1027 62be a9de 203f 9f3d 5b3c
00000180: ec0e c63d 704e 7b3d aaef 9c3d b273 38be
00000190: 6f61 c63b cb3c 363f 030d d73e 6e30 e2be
000001a0: 552e 8b3e dd2f da3e e3ca c8be 23ed 1d3f
000001b0: 5e63 f83d 6020 013f c57d 0cbd ab90 743d
000001c0: c0ff 0f3f 043c 42be e8a2 ecbd 4780 a8be
000001d0: bad9 25be 57ef 313f 6e3b 23be d196 10bf
000001e0: bde5 2c3f 3d93 e23b c82c 79bc d956 863f
000001f0: afbd d43e 9846 293f 34aa a1be 9215 f93d
00000200: be7f d63d 97a4 d03c b532 653e a8cd 8ebc
00000210: 1e2f 493d f3d2 5dbd bfc1 2cbf 87a2 b0be
00000220: d1f4 2abe c33b 953e 591b 443f 5543 b6be
00000230: 1608 383f f912 e13d ace6 553d 77a3 7ebd
00000240: b33e 063f cf85 04be 347a f93c 2bd8 263f
00000250: 7de2 d43f b865 28bf 034f dfbe 3344 023e
00000260: b7d6 e13e f107 eabe 6c0f 823c 5574 913e
00000270: 69d2 863f 9dd0 fd3d 7a0c 1ebe bea1 cfbe
00000280: e87c 5e3f 1b0f bebd 8159 97bd 890b 64bd
00000290: 7ef7 d83f 1dd3 553f 23e7 413e 8dae 65be
000002a0: 84ed 0e3f 3be0 923f 6879 aabc 7720 2f3e
000002b0: 287a cabd f1c6 463f 9fb1 01bd d881 aebd
000002c0: ed5d 3e3e febc 96bd 8f8f 833d 177e 4d3f
000002d0: bd9c 3ebe a3d5 05bf 7ade 34bf a7d6 23bf
000002e0: 93e6 6d3f f280 b93d 50c7 92bd 7e36 41be
000002f0: d925 173f 6dc3 2e3f 186e 7c3e 143b cdbc
00000300: d332 e13f 80f6 ae3e 9d4e ff3e 8b61 9c3d
00000310: 99f4 a6be 503f 343d dc00 6a3d 1f83 f73f
00000320: 105f aa3f 72c1 aa3e 268f bfbe 4e27 5fbf
00000330: 7e59 7abe d1a3 8f3f 4ef0 b93e c989 3240
00000340: 7829 92be 98ce 973c 4aec c83d 8966 b73d
00000350: 4291 ce3c d7a8 2e3f 2e7a ee3e 10cf bbbc
00000360: 9a61 c63d 2393 fdbc 3409 9c3c c9b7 033f
00000370: c374 733e defa 8fbf 18c9 07be 9c6d b0bf
00000380: 5dee 6abf 1aff ef3e 9f5b a13c fdcb 103c
00000390: 42bc 8b3e 06e6 78bd a05a 823d 4f7d 49bf
000003a0: 2612 e43e c5f2 05bf 1a51 ce3f e2ee cf3d
000003b0: 0c38 473d e6fc bc3e f60f 8f3d a40e 6c3f
000003c0: b084 2bbf 25e8 29bf de87 6d3f 9a08 16be
000003d0: 70b4 96bc ff26 0ebc ede6 3f3f e5c8 333f
000003e0: 8be2 113f c41b d13e 0438 503f 138a 2bbf
000003f0: e33d 0f3f 9f54 bdbd 9c56 50bf 7a36 a63e
-0.032028496 -0.09289653 -0.15443853 -0.07437842 -0.2865075 -0.008017063 -0.09506774 0.07112026
0.003058697 -0.1836067 0.36102474 0.5078031 0.3213228 0.88367295 0.7102319 0.125806
0.20916711 0.19825716 -0.107685484 -0.26670665 -2.4424574 5.036427 4.555599 -0.06130164
-0.0042519756 0.30888814 0.32031196 -0.56562525 1.5199502 0.10710648 0.017314622 0.11883112
0.46253833 -0.103198744 -0.068044305 -0.10750039 -1.3065457 0.98264354 0.14492708 0.15858707
0.5498376 -0.5198339 -0.21728249 -0.8265216 -0.01073581 0.2290144 0.11675792 -0.06029232
0.20146237 -0.43097293 -0.24699894 -0.2132406 0.06857936 0.15329129 0.07418118 0.27504942
0.18186979 -0.3017436 -0.21252236 -0.046055935 0.03788644 0.048017222 0.24165072 -0.4095332
0.28124583 -0.56051946 0.24367395 -0.00058559596 -0.24727175 0.015627852 -0.36265808 -0.17780118
-0.5268081 0.14429691 0.47986138 -0.84511906 0.68007654 -0.2867974 0.49408385 0.4043029
0.6465969 0.033957493 -0.062093977 -0.62378633 0.7152115 0.41701186 2.2424314 0.43422765
0.27926 -0.30215162 -0.43220767 0.5043912 0.24063821 -0.22085214 0.6283975 0.013381391
0.09670815 0.0613541 0.076629 -0.18012884 0.0060540955 0.7118651 0.42002115 -0.44177574
0.27183786 0.42614642 -0.3921729 0.61689967 0.12128328 0.50440025 -0.03429963 0.05970828
0.5624962 -0.18968207 -0.115545094 -0.32910368 -0.16196337 0.6950583 -0.1594064 -0.5648013
0.6753805 0.006914525 -0.015208431 1.0495254 0.41550967 0.6612334 -0.31575167 0.12162317
0.10473584 0.025469108 0.22382624 -0.017432049 0.0491172 -0.054156255 -0.67483133 -0.34499
-0.16694953 0.29147157 0.7660423 -0.35598245 0.7188734 0.10989947 0.05222194 -0.06216761
0.5243942 -0.12941669 0.030453779 0.65173596 1.6631619 -0.6578021 -0.4361497 0.12721328
0.44109127 -0.45709184 0.015876494 0.28409067 1.0532962 0.123933055 -0.15434447 -0.40553087
0.8690934 -0.09280225 -0.073901184 -0.055675063 1.6950529 0.8352526 0.18935828 -0.22429867
0.5583117 1.147468 -0.020809844 0.17102228 -0.09886581 0.7764731 -0.031663533 -0.085208595
0.18590517 -0.07360266 0.06423866 0.8027052 -0.18614478 -0.5227911 -0.7065197 -0.6399941
0.92929953 0.090577975 -0.07166922 -0.18868443 0.59042126 0.68266946 0.24651372 -0.025052585
1.7593635 0.3417244 0.49864665 0.07635792 -0.32608488 0.044005692 0.057129726 1.933689
1.3310261 0.33350712 -0.374139 -0.8716935 -0.24448201 1.1221868 0.3631615 2.7896597
-0.28547263 0.018531129 0.098106936 0.08955104 0.025215749 0.6822638 0.4657759 -0.022925884
0.09686585 -0.03095395 0.019047357 0.5145231 0.2377501 -1.1248434 -0.13260305 -1.378345
-0.91769964 0.46874315 0.019697009 0.008837697 0.27292067 -0.060766242 0.063649416 -0.7870683
0.44545096 -0.5232356 1.61185 0.10152985 0.048637435 0.36911696 0.06985466 0.9220984
-0.6699934 -0.6636985 0.9278544 -0.14651719 -0.018396586 -0.00867629 0.7496174 0.70228416
0.569863 0.40841496 0.81335473 -0.6700756 0.55953807 -0.09244656 -0.81382155 0.32463437

model.2.bias f4 [64]
00000000: 59b5 c93e 0075 743e 459b edbd 1d81 f4bd
00000010: 3ea0 a5be d13a 94bc 092e a93d f4a4 023e
00000020: 93ee 8fbd 785b 81be c48f be3d bcc8 adbe
00000030: 984f 193e 9137 6abe d4f9 283d 1974 2abf
00000040: a2b9 d3be 5ef8 c93c da70 1b3f c1a6 c23e
00000050: e2bd 2a3f 0c6a db3e e24a 8b3e 2eb6 a8bd
00000060: 3549 76be a88f 10be 4893 7b3e 1b79 e4bb
00000070: 2449 7c3e 4c7e 3fbf 7357 eabc 9245 11be
00000080: 51a6 263e 36bb 793d 2412 7a3e 6160 2e3f
00000090: 6022 a33d 2ca2 653e 3efd dabd 1580 1e3e
000000a0: bb88 dd3d ee1b 28be 360e f2bd ae66 963e
000000b0: 23fc c2bd 5f82 8e3f c340 ae3c 1632 6a3f
000000c0: 0f1b 9d3d 9d97 293e bb23 75bc 869a 273e
000000d0: 0267 7d3e 43fb 283e 1407 333d 875b 023e
000000e0: fa74 49be 1000 a33d f742 61bf ac70 893e
000000f0: a877 e1bd 5db2 6f3f 37c6 d53d d9fd b1be
0.3939617 0.23872757 -0.11601881 -0.11938689 -0.32348818 -0.018094452 0.08260734 0.12758237
-0.07027926 -0.25265098 0.09304765 -0.3394221 0.14971769 -0.2287276 0.04125388 -0.665834
-0.41352564 0.024654564 0.6071907 0.38017848 0.6669599 0.42854345 0.2720557 -0.08237873
-0.24051364 -0.141173 0.24567902 -0.0069724447 0.24637276 -0.7480209 -0.028606152 -0.14186695
0.16274382 0.060969554 0.24420983 0.6811581 0.07965541 0.22425145 -0.10692833 0.15478547
0.10817095 -0.16416904 -0.11819117 0.29375213 -0.095207475 1.1133536 0.021271115 0.91482675
0.07671177 0.16561742 -0.014962132 0.1636754 0.24746326 0.16502099 0.043707922 0.12730227
-0.1967353 0.07958996 -0.87992805 0.26843774 -0.11009151 0.93631536 0.10438197 -0.34763983

model.4.weight f4 [41, 64]
00000000: d717 d1be b1ee c7be 2dd4 26bd 15d7 743e
00000010: 796f 8a3c afee 063e bdcb 473e 6604 21bf
00000020: 5995 ab3c 8af1 b63c 03f5 a5bd 0a0f 28bd
00000030: df92 403f 3104 51bf b6cd 4cbd c1e0 b6be
00000040: 93cd 123e 3169 87bf 326d 6e3f 5d9c 4bbe
00000050: 22c6 c43e 047d 88bc ec9e 3dbd c2c2 28bf
00000060: 7108 79bf c116 2dbe d200 dbbe 5de9 89b8
00000070: c2b3 f33e 56ca 653d d759 25bd 6e65 febe
00000080: c1a3 c2be 7dd8 12bf 67d9 793e 07cc ffbb
00000090: 2442 603e 9207 483e 8e2a a63c 8ede e2be
000000a0: cc72 8dbc 749e c13d c2ac 41bd 6934 f83d
000000b0: 92ab b83d 3883 b53f 90fd 1dbf b70c b93d
000000c0: 6675 85ba 75ca b23d 8d86 833d eb68 1fbf
000000d0: b2c0 88be bb09 08bf 86b9 16bd 2864 99be
000000e0: e0e7 0fbf 080d 89bd aed9 f9be 62ef a2bf
000000f0: 0a63 913d 79b7 c6be b463 2a3d b834 4a3d
00000100: 6135 2f3d 5ea6 18bf eb52 34be 6ff1 373e
00000110: e3e1 27bc a63e d3bd 65dc 1c3d 12b2 15c1
00000120: d6e2 b33d e532 a73b d01f 253f 986e 343c
00000130: 8e5f f53c 5f5a b83c 7ef0 cd3c 86ac e8c0
00000140: dcf7 e13c 8c3a 0dbf c105 8cbf a230 1d3f
00000150: 13d1 303f 6d84 ad3d c5a8 57be 909b c73e
00000160: 3966 4c3f 50cc bfbc c29b babd eea9 b6bc
00000170: 8492 7e3e 08af 54c0 ede1 14be 3285 f6c0
00000180: 3967 b6bc 6922 fdbe addd 0b3f 4600 7fbf
00000190: 335a a13e 0d6c 203e f0d0 9e3d fb39 78bf
000001a0: 67af 1fbc 531d 7e3c e36b b5bd b204 86bd
000001b0: 2783 983d 458d 113d f8d5 943d 7a17 40c0
000001c0: bfaa 893e 2bbb 493c 77ba 07be 7b82 263f
000001d0: 71ef a6bc f3a9 fbbe 94b5 ba3d f5d9 ae3e
000001e0: 86ab 14bf d78c a83d d0c8 e0c0 8665 563e
000001f0: 3fa8 84bd 2ae2 1bbd 9b31 d23d c1d1 453b
00000200: 01a6 97bf 9fb6 003f 0747 8c3e aeb5 9a3c
00000210: 34e5 8d3b 6839 2b3e 3da5 c0be 5509 f33f
00000220: 3f48 5a3d 3d45 eb3b f0de 003e d0b8 9bb9
00000230: 8616 aabf a5a3 5cbc 9c37 c43d 0b86 9fbf
00000240: 5438 113d 1e8c 98bd 20b3 41bd 8f67 4b3e
00000250: a1bc 833d 6b27 26bd 1a78 b23e f142 25bf
00000260: 8e08 29be 3ef3 b0bd 77ab 74bc 461c 05be
00000270: 9096 883d 3297 b8be 72a9 4bbb ca77 e8bf
00000280: 21a5 183d bd0d f93d e948 613e d02e 2fbe
00000290: 5faa e43e 5401 76be 8230 753d b752 0bbe
000002a0: cca8 bc3d 42f1 693c 3617 0d3d dc8f bc3e
000002b0: bc22 19bd b288 5a3e fbfc d83b d6d9 ba3e
000002c0: 0860 42bd b4d8 86bc 88ee e0bd 4944 05be
000002d0: 27e2 9cbf f76c f9bd 979d a4bd a51d f5bd
000002e0: eb66 3abe d5d1 99bd 291c c8bf e40d b3bd
000002f0: d811 673c ff57 e1ba 30d3 253d 813d 0c3c
00000300: b49d 38bd 4d4c 9b3e 09f8 0dbd 85f8 993b
00000310: 94dd c73b 80e6 28be 1b99 cfbc ea2c 11c1
00000320: e8af 993d 1fef c53b 780b a1be 32ae 2c3c
00000330: 8ca0 9c3e 4525 ae3d 0a2e af3d 68fd e7c0
00000340: 75f2 463d 807c 313f d36f 743f 0aca 03bf
00000350: bf34 c4bf c2ff 70be 872a b33d 596a 2bbf
00000360: a160 06bf 3a83 0a3d e70f ef3d 9fa9 69bd
00000370: 6623 0abe 8b2d 4bc0 f5c7 1bbd 8099 f5c0
00000380: bc52 0b3d 8658 d23e dcde e3be fb47 5e3f
00000390: 65af 413d 5abd 0a3d 2c37 01be 8fda ea3e
000003a0: e7d3 b5bd e723 c73c 92ae cdbc 9b71 713e
000003b0: 67e6 7c3d 6c51 9ebe 4642 1e3e a544 43c0
000003c0: 6c50 b0be e8b6 8abc f9ba 66bd b533 e3be
000003d0: 9496 00be 8fc9 a33e 93ce d53d 2d61 33be
000003e0: 4880 6c3f d291 44bc 3c3d e0c0 9006 02bf
000003f0: a42c 86bb 1260 c63d 23bd 0dbe 8625 103c
-0.408385 -0.39049295 -0.04072969 0.23910172 0.016898857 0.13176988 0.19511314 -0.62897336
0.020945238 0.022331972 -0.08103373 -0.041029967 0.7522411 -0.8164702 -0.05000087 -0.3571835
0.14336233 -1.0578977 0.9313537 -0.19883867 0.38432413 -0.016661175 -0.046294138 -0.65922177
-0.97278506 -0.16903211 -0.42774063 -6.5761364e-05 0.47598082 0.056101166 -0.04036888 -0.4968676
-0.3801556 -0.57361585 0.24399339 -0.0078063044 0.2190023 0.19534138 0.020283964 -0.4431042
-0.017266653 0.09454051 -0.047283895 0.121193714 0.090170994 1.418067 -0.6171503 0.09035628
-0.0010182082 0.08730022 0.06422148 -0.6226947 -0.26709515 -0.5313985 -0.036798023 -0.29959226
-0.5621319 -0.06691939 -0.4879889 -1.2729304 0.07098968 -0.38811854 0.04159899 0.049366683
0.042775515 -0.59628856 -0.17609756 0.17963193 -0.010246727 -0.103146836 0.038296122 -9.355974
0.087835 0.0051025026 0.6450167 0.011012696 0.02995279 0.02250403 0.02513909 -7.27106
0.027584009 -0.5516746 -1.0939256 0.6140233 0.6906902 0.08472524 -0.21060474 0.38985872
0.7984348 -0.023412853 -0.0911174 -0.022297826 0.24860579 -3.323183 -0.14539309 -7.703759
-0.022266017 -0.49440315 0.54635125 -0.9960979 0.3151413 0.15666218 0.077546954 -0.9696347
-0.009746409 0.015509921 -0.088584684 -0.06543864 0.0744689 0.035535116 0.07267374 -3.001433
0.2688808 0.012312691 -0.13254724 0.6504285 -0.020377846 -0.49153098 0.091166645 0.34150663
-0.58074224 0.08229988 -7.0245132 0.20937166 -0.06477403 -0.038057484 0.10263368 0.0030184838
-1.1847535 0.5027866 0.2739794 0.01888546 0.0043303017 0.16721117 -0.37626067 1.8987223
0.053291555 0.0071798847 0.12585044 -0.000297016 -1.3288124 -0.01346675 0.09580919 -1.2462782
0.03545411 -0.074486 -0.047289968 0.19863723 0.064324625 -0.040564936 0.34857255 -0.6455527
-0.1650717 -0.08640145 -0.0149334585 -0.12999067 0.066693425 -0.36052853 -0.003107634 -1.8161557
0.037266854 0.121608235 0.2200047 -0.17107701 0.44661233 -0.24023944 0.059860714 -0.13605772
0.09211883 0.014278712 0.034445964 0.36828506 -0.03738664 0.21341208 0.0066219545 0.3649432
-0.047454864 -0.016460754 -0.10982996 -0.1301433 -1.2256516 -0.121789865 -0.080378704 -0.11968545
-0.18203323 -0.075107254 -1.5633594 -0.08742884 0.014103375 -0.0017192363 0.040484607 0.008559586
-0.045072272 0.3033165 -0.034660373 0.0046988153 0.006099412 -0.16494179 -0.025341561 -9.073465
0.075042546 0.0060404683 -0.31454062 0.010539578 0.30591238 0.08503202 0.08553703 -7.2496834
0.04857107 0.69330597 0.9548313 -0.5148016 -1.5328597 -0.23535064 0.08748346 -0.6695915
-0.52491194 0.033816554 0.11672955 -0.05704653 -0.13490066 -3.1746547 -0.03803249 -7.674988
0.03401445 0.41083163 -0.44505966 0.86828583 0.04728641 0.033871986 -0.12618703 0.45869872
-0.08878308 0.024309112 -0.025107656 0.23578493 0.061743166 -0.30921495 0.15454969 -3.0510647
-0.34436357 -0.01693292 -0.056330655 -0.44375387 -0.12557441 0.31989715 0.104397915 -0.17517538
0.9238324 -0.011997657 -7.007475 -0.50791264 -0.004094677 0.09686293 -0.13841681 0.008798009

model.4.bias f4 [41]
00000000: 4458 8a3f 722d 94bf 03f2 0dbf 2112 9cbf
00000010: ea88 ddbe e18a 15bf c2a9 adbd 8e3d a4bf
00000020: 0a5d b4bd d79a e7bd c250 e23c ba36 4c3d
00000030: 21fc c23c 656d 7dbe 81ac 5fbe 187b 8d3e
00000040: fe8d 433d 8593 05be 5ac1 eebe e844 ccbe
00000050: 5997 763d f5f4 82bf 6638 8bbf b6bd 90bf
00000060: 6bab 8f3f 9bfd 95bf eb31 91bf 626d b7bd
00000070: 48dd 8e3f a27c c93e 62dd 653c 1e99 40be
00000080: 6f63 7e3e 6e5b d3be c596 25bf c543 b23d
00000090: e60c e9bd 0d6b b83d 1ff6 81be 80fa f8be
000000a0: 13a7 623d
1.0808187 -1.1576369 -0.55447406 -1.2193033 -0.4326852 -0.5841504 -0.08479644 -1.2831285
-0.08806808 -0.1130883 0.027626399 0.04985688 0.023801865 -0.24748762 -0.21843149 0.27632976
0.047742836 -0.13044555 -0.4663189 -0.3989632 0.06020293 -1.0231005 -1.0876586 -1.1307895
1.1224188 -1.1718019 -1.1343359 -0.0895641 1.116128 0.393529 0.014029833 -0.1880841
0.24842618 -0.41280693 -0.6468318 0.08704332 -0.11379413 0.09004793 -0.25383088 -0.48628616
0.055335116
