MSModel/best_model_ms.pt (torch, 409881 bytes, 127 tensors)

gat_init.module_0.att f4 [1, 16, 4]
0.08975228 -0.45260447 -0.76418704 -0.37927398 0.029766483 -0.008119475 -0.0010007885 0.0056469985
0.021926725 -0.003515349 0.012366658 0.0092367325 -0.6105452 0.32412565 1.0959525 -0.46343145
-1.0398184 0.59747195 1.296455 0.40213782 0.15771994 0.005082903 0.07896598 1.2385375
-0.26466683 -0.006582918 -0.8277891 -1.0838119 0.0036225433 -0.33876422 0.7567224 -0.21531607
0.04307702 -0.02944905 -0.012581646 -0.0034894645 -0.8239179 -0.09885487 0.44485173 1.1535889
0.00080695684 0.00400503 -0.0021889522 -0.010325896 0.018104013 0.011148013 0.022462398 0.0044089253
-0.09970377 -0.54546255 -0.4607303 -0.060286585 0.013485125 -0.81021845 1.0008118 -0.5863184
0.013476648 0.002484632 0.034942564 0.0053488584 0.009292014 -0.0023234487 0.48557362 0.24279177
00000000: 0bd0 b73d c6bb e7be c3a1 43bf 3330 c2be
00000010: d7d8 f33c 8c07 05bc e42c 83ba 750a b93b
00000020: ad9f b33c c561 66bb 869d 4a3c aa55 173c
00000030: b14c 1cbf ccf3 a53e 2c48 8c3f e346 edbe
00000040: c518 85bf ecf3 183f 3df2 a53f 02e5 cd3e
00000050: 5681 213e 7b8e a63b eab8 a13d 6688 9e3f
00000060: 6982 87be 85b5 d7bb fde9 53bf 59ba 8abf
00000070: 3168 6d3b 8172 adbe 8fb8 413f d17b 5cbe
00000080: 8871 303d 223f f1bc 4023 4ebc 80af 64bb
00000090: 49ec 52bf 6c74 cabd 9bc3 e33e cda8 933f
000000a0: f589 533a a03c 833b 8674 0fbb f22d 29bc
000000b0: de4e 943c 28a6 363c 1003 b83c bf78 903b
000000c0: 7d31 ccbd 6fa3 0bbf d8e4 ebbe 11ef 76bd
000000d0: b7f0 5c3c 7a6a 4fbf 9a1a 803f f618 16bf
000000e0: 29cd 5c3c 35d5 223b ef1f 0f3d 7a45 af3b
000000f0: 883d 183c 0045 18bb 1b9d f83e 689e 783e

gat_init.module_0.bias f4 [64]
0.024835374 -0.098937705 0.4574698 -0.08194154 -0.05368029 0.51791966 0.26007617 0.66551673
-0.33254382 1.2365892 -0.116029054 0.23741646 0.21415329 -0.26395255 0.48539394 0.28799543
0.024367504 0.40451482 -0.4120309 -0.33989865 -0.24160069 0.5073728 0.11603126 -0.7614239
0.023688558 0.6376171 0.49653465 -0.058325414 -0.59006566 0.29183447 -0.37764058 0.026369039
0.47445735 -0.36544892 0.5344053 0.6062009 0.36007717 -0.2607802 0.451432 -0.45911026
0.028505178 -0.28433812 -1.2161243 0.16819005 0.81211823 -0.21107894 -0.16026187 -0.19578892
-0.57010937 -0.18597965 0.09853592 0.14248091 -0.5576088 0.30328822 -0.21451436 0.488056
-0.36564672 -0.16285016 -0.17350581 -0.070491016 0.7126017 -0.24345045 -0.3397933 -0.31827536
00000000: 8e73 cb3c da9f cabd 7b39 ea3e f7d0 a7bd
00000010: dddf 5bbd 6296 043f b428 853e 4e5f 2a3f
00000020: 2f43 aabe 8e48 9e3f a4a0 edbd 4d1d 733e
00000030: 004b 5b3e ca24 87be 8e85 f83e 2374 933e
00000040: 5c9e c73c 911c cf3e b7f5 d2be 3207 aebe
00000050: 2c66 77be 2fe3 013f cca1 ed3d adec 42bf
00000060: 820e c23c e03a 233f ca39 fe3e a1e6 6ebd
00000070: 8b0e 17bf 546b 953e 1b5a c1be e203 d83c
00000080: 13ec f23e 1f1c bbbe c9ce 083f fb2f 1b3f
00000090: 095c b83e fb84 85be 1822 e73e 8010 ebbe
000000a0: b183 e93c c494 91be f6a9 9bbf 033a 2c3e
000000b0: fbe6 4f3f 1425 58be b01b 24be e47c 48be
000000c0: b0f2 11bf 7371 3ebe 33cd c93d 84e6 113e
000000d0: 73bf 0ebf 9848 9b3e a7a9 5bbe 7ae2 f93e
000000e0: 0c36 bbbe 31c2 26be 82ab 31be 985d 90bd
000000f0: 116d 363f 134b 79be 63f9 adbe fdf4 a2be

gat_init.module_0.lin_l.weight f4 [64, 2]
0.20538412 -0.051985994 0.104987174 -0.14376603 0.04776029 -0.25194377 0.37243226 -0.524242
0.14606744 -0.037191175 0.1319672 -0.051786605 0.17372768 0.1216472 -0.07026866 0.14729302
0.2590516 -0.0143272 -0.21509647 0.0065885177 0.10910125 -0.1333832 -0.053741254 -0.24013926
-0.11896416 0.48582336 -0.29777455 0.24546298 -0.63048255 0.5807681 -0.26812878 0.21881789
0.60189646 -0.661786 -0.27876496 0.20912059 -0.8684077 0.39428988 -0.43624374 -0.13889475
-0.05096414 -0.31530952 0.014150817 -0.07634967 -0.074095674 0.09671923 -0.90388274 0.72983927
-0.043005317 0.52598155 0.18154791 -0.0066028177 -0.61275786 0.56546134 0.58172375 -0.40637603
0.16504091 0.022788813 0.34486434 0.2248806 0.17550316 0.24822597 -0.29281464 0.10741432
0.055427365 -0.21482143 -0.16194065 0.113471046 0.1181636 0.25143227 0.078467846 0.27816564
0.4363966 -0.38353175 0.027593102 -0.20265971 -0.38170904 0.4328911 -0.4481368 0.65174186
-0.031399973 -0.22044145 -0.29074067 0.002985174 0.021411128 0.25851557 0.11115851 0.25258145
0.14974496 0.3357589 0.19678852 0.06304556 0.087742135 0.23941131 -0.07961228 -0.2540434
0.39599705 0.14527392 0.29460734 -0.16319704 0.15414792 -0.47318643 0.20002933 -0.0914784
0.15456426 -0.06993538 -0.6568132 0.571823 0.41903964 -0.5779746 0.08916962 0.010451582
-0.16530931 0.13221939 -0.03170122 -0.2681257 -0.21581396 -0.32021278 0.11174239 -0.24669603
-0.1166368 0.10705153 0.17029572 0.01849697 -0.17989804 0.27402753 -0.49001625 0.5025447
00000000: 3750 523e 44ef 54bd 8403 d73d 6737 13be
00000010: 4ba0 433d c6fe 80be 71af be3e b934 06bf
00000020: b492 153e c655 18bd 6922 073e 311e 54bd
00000030: abe5 313e 2b22 f93d 04e9 8fbd fbd3 163e
00000040: 69a2 843e a2bc 6abc 4042 5cbe 7ee4 d73b
00000050: 7a70 df3d 9b95 08be ca1f 5cbd 11e7 75be
00000060: 7ba3 f3bd d7bd f83e e875 98be a65a 7b3e
00000070: 4e67 21bf 38ad 143f 2d48 89be cc11 603e
00000080: e315 1a3f cf6a 29bf 48ba 8ebe b523 563e
00000090: f84f 5ebf 5de0 c93e 575b dfbe 6d3a 0ebe
000000a0: c6bf 50bd 4070 a1be d4d8 673c 375d 9cbd
000000b0: 79bf 97bd bb14 c63d dc64 67bf bfd6 3a3f
000000c0: 5826 30bd baa6 063f b2e7 393e 735c d8bb
000000d0: b3dd 1cbf 13c2 103f d9eb 143f 8510 d0be
000000e0: 7c00 293e 9baf ba3c 0f92 b03e 1a47 663e
000000f0: 1ab7 333e f32e 7e3e cdeb 95be 0afc db3d
00000100: ce07 633d 26fa 5bbe c5d3 25be 8263 e83d
00000110: c2ff f13d bbbb 803e c0b3 a03d ba6b 8e3e
00000120: 606f df3e 465e c4be ee0a e23c 0786 4fbe
00000130: 5e6f c3be e7a3 dd3e 3072 e5be 8ed8 263f
00000140: 429d 00bd 67bb 61be f6db 94be e9a2 433b
00000150: 6466 af3c 275c 843e 13a7 e33d 5b52 813e
00000160: be56 193e 97e8 ab3e ee82 493e 081e 813d
00000170: 26b2 b33d 3d28 753e c30b a3bd fa11 82be
00000180: 20c0 ca3e b0c2 143e c6d6 963e 201d 27be
00000190: f4d8 1d3e 7e45 f2be 7dd4 4c3e 0759 bbbd
000001a0: 1846 1e3e 483a 8fbd e924 28bf fe62 123f
000001b0: 5d8c d63e 25f6 13bf 909e b63d 1d3d 2b3c
000001c0: d846 29be 8564 073e 23d9 01bd c647 89be
000001d0: 56fe 5cbe eef2 a3be 32d9 e43d e29d 7cbe
000001e0: 46df eebd d53d db3d 0062 2e3e f586 973c
000001f0: 3137 38be 564d 8c3e 69e3 fabe c5a6 003f

gat_init.module_0.lin_l.bias f4 [64]
-0.53677416 -0.94838554 -0.41117537 0.6020133 -0.27892986 0.77518386 0.348078 0.6269379
-1.1525857 1.1371099 -0.10421527 -0.41972238 0.28996924 -0.2992903 -0.3595961 0.38594982
-0.080536336 0.90698576 0.0777966 -0.13214318 -0.010627704 0.9964731 0.60767907 0.08545223
-0.31539482 1.1270274 -0.3949938 0.02454812 0.13438445 0.24659851 0.741259 0.2909445
-0.30220526 -0.41562906 0.45474654 0.8649195 -0.24670783 -0.56401074 -0.743908 0.092589796
-0.5073542 -0.31095874 -1.7823684 0.20575297 0.3291611 -0.08169984 0.8052558 -0.7517654
-0.30018657 0.37120494 0.6760891 0.01017227 -0.3170122 -0.7045868 0.028172791 0.7122871
0.018766755 0.6465385 0.15506847 0.15422425 -0.29940936 -0.014445413 0.39059857 -0.4345855
00000000: 086a 09bf 65c9 72bf 9485 d2be 8b1d 1a3f
00000010: e5cf 8ebe 7372 463f 4837 b23e 017f 203f
00000020: ee87 93bf d18c 913f d16e d5bd dae5 d6be
00000030: d976 943e 943c 99be fb1c b8be 379b c53e
00000040: 3cf0 a4bd 3830 683f d353 9f3d 8b50 07be
00000050: d21f 2ebc dc18 7f3f db90 1b3f 9401 af3d
00000060: 6e7b a1be 6f42 903f a13c cabe 2419 c93c
00000070: 149c 093e 5284 7c3e 26c3 3d3f adf6 943e
00000080: a6ba 9abe 55cd d4be 8ad4 e83e 5d6b 5d3f
00000090: faa0 7cbe 0263 10bf c170 3ebf b89f bd3d
000000a0: f7e1 01bf fc35 9fbe a624 e4bf e8b0 523e
000000b0: ce87 a83e 3f52 a7bd 3e25 4e3f b273 40bf
000000c0: 0eb2 99be 930e be3e 2d14 2d3f 98a9 263c
000000d0: 6c4f a2be cd5f 34bf a0ca e63c 7358 363f
000000e0: bdbc 993c 8c83 253f 45ca 1e3e f6ec 1d3e
000000f0: 2f4c 99be 74ac 6cbc 89fc c73e fe81 debe

gat_init.module_0.lin_r.weight f4 [64, 2]
-0.21123613 -0.40049055 -0.20490251 0.07643818 -0.09729789 0.14876844 -0.13102134 0.24919967
-0.31941143 -0.464581 -0.18261263 0.019420067 0.09330938 0.07987578 0.084622934 -0.17687133
-0.003790489 -0.4550913 0.5125003 -0.11976685 -0.2114391 -0.11673637 -0.17617196 -0.21328065
0.4778004 0.50659895 -1.0147861 -0.14141685 -1.1942155 0.37829116 0.028617809 0.04947678
-0.54452145 0.45517793 0.27201292 -0.45379588 -0.99161726 -0.30587333 0.36183718 -0.49449
0.12127969 0.12802534 0.118336566 0.16663808 -0.48829207 0.12718669 -0.22424734 -0.074487746
1.0897071 -0.36881718 0.14438517 0.23508498 0.5869049 -0.34595954 -0.21938951 0.3994138
-0.10859005 -0.19007584 0.3150319 0.22114147 0.058129273 0.02546666 0.35848528 0.22123322
-0.04188932 -0.35123092 0.0032361078 -0.26772544 -0.043791484 0.17903148 -0.12508316 -0.20717134
-0.23732464 0.3334852 0.13120078 -0.17534253 -0.16802746 -0.3352017 -0.7036105 -0.12932275
-0.51948327 0.57714957 -0.12436792 -0.2403872 0.27552265 -0.09537358 -0.145732 0.5791241
0.54172426 0.04927696 -0.04281034 -0.34538773 0.20068277 0.2330948 0.26240712 -0.092901714
0.24566676 0.32401347 0.61785895 0.0051327515 -0.05922722 0.7795058 -0.18306242 -0.43954498
-0.35066873 -0.20963892 -0.011849978 -0.36063492 -0.15802436 0.34899944 -0.36944735 -0.2315569
-0.15697677 0.08369947 -0.42716634 -0.32236388 0.0540004 0.1389761 -0.14206213 -0.14892446
-0.17541037 -0.24149674 -0.1429202 0.44075924 0.075219974 0.5538927 -0.15293421 1.7490326
00000000: 494e 58be 190d cdbe f7d1 51be 9f8b 9c3d
00000010: 1e44 c7bd c156 183e 752a 06be 332e 7f3e
00000020: e589 a3be 90dd edbe cefe 3abe d516 9f3c
00000030: fd18 bf3d ea95 a33d ca4e ad3d c21d 35be
00000040: da69 78bb ba01 e9be 3833 033f 5248 f5bd
00000050: 7e83 58be 7a13 efbd 6c66 34be 3e66 5abe
00000060: 41a2 f43e 78b0 013f 83e4 81bf 94cf 10be
00000070: 0edc 98bf 61af c13e e56f ea3c 2aa8 4a3d
00000080: c265 0bbf 150d e93e 4745 8b3e ef57 e8be
00000090: a1da 7dbf 6e9b 9cbe b942 b93e cb2d fdbe
000000a0: 7c61 f83d 1319 033e 715a f23d 2ca3 2a3e
000000b0: 6b01 fabe 3a3d 023e 18a1 65be 088d 98bd
000000c0: 867b 8b3f 9bd5 bcbe b5d9 133e 1eba 703e
000000d0: 663f 163f 9c21 b1be a5a7 60be f77f cc3e
000000e0: 7664 debd 3ea3 42be dc4b a13e e972 623e
000000f0: f618 6e3d 759f d03c 628b b73e f68a 623e
00000100: 2394 2bbd 8ad4 b3be e114 543b 4f13 89be
00000110: b35e 33bd 0754 373e cd15 00be b924 54be
00000120: 3b05 73be 92be aa3e 7f59 063e fe8c 33be
00000130: 640f 2cbe 8f9f abbe d11f 34bf 2f6d 04be
00000140: dbfc 04bf 13c0 133f 9cb4 febd 1028 76be
00000150: 4e11 8d3e 3953 c3bd c53a 15be 7a41 143f
00000160: 71ae 0a3f a3d6 493d e559 2fbd a9d6 b0be
00000170: c97f 4d3e 67b0 6e3e 3a5a 863e 4143 bebd
00000180: 1190 7b3e 18e5 a53e 012c 1e3f a430 a83b
00000190: 3e98 72bd b18d 473f b774 3bbe 0a0c e1be
000001a0: da8a b3be 96ab 56be 6926 42bc 24a5 b8be
000001b0: 23d1 21be 0eb0 b23e 3428 bdbe 411d 6dbe
000001c0: 85be 20be a16a ab3d 8cb5 dabe e10c a5be
000001d0: 862f 5d3d c04f 0e3e bc78 11be a77f 18be
000001e0: c79e 33be ec4a 77be ac59 12be 32ab e13e
000001f0: ee0c 9a3d e9cb 0d3f c99a 1cbe 4de0 df3f

gat_init.module_0.lin_r.bias f4 [64]
-0.3825807 -0.4310099 -0.74761045 -0.46282178 0.36896738 -0.5728496 0.3976697 0.08305583
0.12843373 0.0410519 -0.21674049 -0.38488746 1.194193 0.17656486 0.12126563 -0.7122708
0.5069331 0.33693987 0.27143547 -0.5070019 -0.19515832 0.25323454 0.55004025 -0.008155152
0.3962055 0.0055026202 0.41740376 -0.32737896 0.57415867 0.83406174 0.36243108 0.7281551
0.1692811 -0.60405016 0.79317224 0.25797346 0.62442356 -0.58256614 -0.06482957 -0.5709611
0.11937688 -0.365067 -0.64914453 -0.054153256 0.42769518 -0.29140776 1.087784 0.09210285
0.33548504 0.35937366 0.5299581 -0.191964 -0.11265822 -0.2933966 0.71713454 0.39058852
-0.5844073 -0.4391198 0.41176057 -0.343832 -0.17233035 0.1609363 0.8953452 0.5342967
00000000: 9ee1 c3be 54ad dcbe 6663 3fbf faf6 ecbe
00000010: 4be9 bc3e 45a6 12bf 5d9b cb3e 2d19 aa3d
00000020: 2284 033e 0926 283d 38f1 5dbe f80f c5be
00000030: 51db 983f 6bcd 343e 1d5a f83d 6157 36bf
00000040: 5ec6 013f 6283 ac3e 97f9 8a3e e0ca 01bf
00000050: 95d7 47be f5a7 813e 70cf 0c3f 309d 05bc
00000060: 73db ca3e 534f b43b f2b5 d53e 379e a7be
00000070: 10fc 123f 1285 553f 9190 b93e 5f68 3a3f
00000080: 0658 2d3e 08a3 1abf 560d 4b3f 1915 843e
00000090: 39da 1f3f 0e23 15bf 5ec5 84bd 822a 12bf
000000a0: de7b f43d 10ea babe 562e 26bf cecf 5dbd
000000b0: ddfa da3e 6633 95be 823c 8b3f 6ba0 bc3d
000000c0: b2c4 ab3e d3ff b73e 56ab 073f 3692 44be
000000d0: 5ab9 e6bd 1438 96be 2196 373f 38fb c73e
000000e0: b89b 15bf 4fd4 e0be 48d2 d23e bf0a b0be
000000f0: 5e77 30be 7ccc 243e 5835 653f abc7 083f

gat_init.module_0.lin_edge.weight f4 [64, 2]
0.7284427 -0.65444267 -0.80467206 0.9322312 -1.1923648 0.8580151 -0.4981093 -0.029758202
0.08552479 0.059133604 0.18325421 0.3401444 0.07754875 0.19574787 0.13094862 -0.17475064
-0.29808116 0.004249133 -0.07629015 -0.09367921 0.001009426 0.03677316 -0.14605214 -0.09918143
-0.30584368 0.24070105 -0.08132781 0.5830374 0.23278393 0.48115948 -0.0046935356 0.13624719
1.4064968 -0.18429694 0.15203172 -0.062146224 0.87401354 0.5456698 0.1264053 -0.09234724
0.31688884 -1.1563729 -0.29005113 -0.08310609 -0.28843975 0.11377389 -0.3686741 1.3859938
0.36842167 -0.9333637 -0.6126567 0.73738563 0.10678576 -0.45679927 -1.0095159 0.6237112
-0.219285 0.041789107 0.5685745 -0.6192455 -0.8132595 0.79379183 0.6887635 -0.41821748
0.0074464465 0.34851307 0.82683045 -0.46206355 0.6965322 -0.7217767 0.31508517 -0.13487144
0.98145145 -0.3035273 -0.7987529 0.47702548 0.79731655 -0.7094941 -0.01972794 1.2450949
0.17661913 0.12514696 -0.25929096 0.057898868 -0.25761363 -0.01720583 -0.18005165 -0.12674816
0.038722478 -0.33549872 0.21187425 0.1510661 -0.16631521 -0.10286181 0.14012198 0.12124438
0.27774614 -0.15013683 -0.9777757 0.5452392 0.5381332 -0.4256234 0.3163797 -0.13091171
-0.15593496 0.30144736 0.7811645 -0.72818387 -1.0529788 0.5751137 0.6531923 -0.69258463
-0.05221033 0.1034144 0.050493613 -0.062182687 0.024722874 0.42498696 0.22150423 0.09978108
0.20539756 -0.42892212 0.36241925 -0.15253794 -0.28862232 0.8270309 0.32339114 -0.13806215
00000000: 397b 3a3f 8e89 27bf fdfe 4dbf b4a6 6e3f
00000010: 699f 98bf e1a6 5b3f 2f08 ffbe 79c7 f3bc
00000020: 9f27 af3d 1436 723d fea6 3b3e 6827 ae3e
00000030: e1d1 9e3d 2172 483e 6517 063e d5f1 32be
00000040: 189e 98be 503c 8b3b 033e 9cbd e3da bfbd
00000050: b74e 843a 749f 163d b18e 15be a21f cbbd
00000060: 8b97 9cbe 567a 763e 328f a6bd f041 153f
00000070: e95e 6e3e 895a f63e 3bcc 99bb 6284 0b3e
00000080: 1608 b43f 56b8 3cbe 34ae 1b3e 0a8d 7ebd
00000090: 5abf 5f3f 04b1 0b3f 6470 013e 8d20 bdbd
000000a0: 413f a23e 0704 94bf 9581 94be 8733 aabd
000000b0: 60ae 93be 4902 e93d dac2 bcbe 3f68 b13f
000000c0: c4a1 bc3e ecf0 6ebf 12d7 1cbf 4ec5 3c3f
000000d0: 7eb2 da3d 98e1 e9be d137 81bf 8aab 1f3f
000000e0: 3f8c 60be 0e2b 2b3d 198e 113f e086 1ebf
000000f0: c631 50bf f135 4b3f ce52 303f 9a20 d6be
00000100: 5201 f43b 4e70 b23e 29ab 533f 9893 ecbe
00000110: ef4f 323f 5cc6 38bf d852 a13e bd1b 0abe
00000120: 6740 7b3f ee67 9bbe 127b 4cbf af3c f43e
00000130: f01c 4c3f 68a1 35bf 7d9c a1bc 455f 9f3f
00000140: a5db 343e 8626 003e c9c1 84be 5d27 6d3d
00000150: efe5 83be 3ef3 8cbc 765f 38be 45ca 01be
00000160: 769b 1e3d 7dc6 abbe 90f5 583e 12b1 1a3e
00000170: 894e 2abe 36a9 d2bd 237c 0f3e f94e f83d
00000180: be34 8e3e 78bd 19be 824f 7abf cc94 0b3f
00000190: 19c3 093f 4feb d9be 85fc a13e b80d 06be
000001a0: 6aad 1fbe 4f57 9a3e 66fa 473f 426a 3abf
000001b0: 02c8 86bf a73a 133f 9c37 273f 3a4d 31bf
000001c0: 80da 55bd eeca d33d 64d2 4e3d 46b3 7ebd
000001d0: a087 ca3c e497 d93e 01d2 623e 065a cc3d
000001e0: bd53 523e ae9b dbbe 048f b93e e832 1cbe
000001f0: 4ec6 93be 4cb8 533f 8693 a53e 2a60 0dbe

gat_init.module_1.module.weight f4 [64]
0.3414464 0.51460004 0.36347842 0.6865814 0.37859097 0.53857005 0.037188012 1.3661689
0.8496754 1.2474892 0.84573376 0.25508696 0.6138973 1.0058672 0.6231007 1.4803978
0.9440973 1.2938272 1.4554732 1.0781813 0.6491496 0.11389789 1.3818139 1.5818974
1.0124222 0.67560446 1.2627126 0.7726629 0.5824224 0.96163595 0.9825657 0.94879013
0.7313494 1.0453215 0.6004698 1.2351247 0.7452409 0.61248785 0.90261745 1.4022311
0.5715033 1.0606172 0.7806456 0.60348094 1.5366206 0.15490712 1.1527041 0.4111873
0.61226994 0.21321964 0.30783108 0.37148845 0.4124312 0.71030635 0.8980861 0.7898778
0.6129871 0.18940644 0.029150467 0.65802044 0.7040001 0.44960415 1.0934826 0.65816575
00000000: 10d2 ae3e d4bc 033f d819 ba3e ccc3 2f3f
00000010: add6 c13e badf 093f 7552 183d 9fde ae3f
00000020: 5484 593f baad 9f3f 0282 583f c29a 823e
00000030: 6028 1d3f 42c0 803f 8783 1f3f ad7d bd3f
00000040: 5cb0 713f 219c a53f f24c ba3f d801 8a3f
00000050: ab2e 263f 4c43 e93d 47df b03f 9d7b ca3f
00000060: 0d97 813f 6af4 2c3f 91a0 a13f 3ccd 453f
00000070: a219 153f c62d 763f 6d89 7b3f e9e3 723f
00000080: b739 3b3f 18cd 853f 64b8 193f 9118 9e3f
00000090: 1cc8 3e3f 01cc 1c3f f011 673f 4f7c b33f
000000a0: 0a4e 123f 4ec2 873f 64d8 473f ba7d 1a3f
000000b0: fcaf c43f f99f 1e3e cf8b 933f 2487 d23e
000000c0: b9bd 1c3f 4056 5a3e 099c 9d3e bc33 be3e
000000d0: 2f2a d33e a3d6 353f f8e8 653f 6e35 4a3f
000000e0: b9ec 1c3f c3f3 413e f6cc ee3c 0774 283f
000000f0: 5a39 343f 8432 e63e 3df7 8b3f 8d7d 283f

gat_init.module_1.module.bias f4 [64]
0.24537729 -0.20957248 0.26902258 -0.005050467 -0.12823464 -0.06655361 -0.051844835 -0.5158048
-0.24794899 -0.5010121 -0.013076374 -0.19455272 -0.7276914 -0.68979824 -0.24232177 -0.45554593
0.29841754 -1.2544637 -0.5013177 -0.5234153 0.0013287183 0.023925316 -0.63894403 -0.4305358
-1.2208452 -0.08664271 -0.6129788 -0.364079 0.05999015 0.0900168 -0.8064675 -0.49528715
-0.61854434 -1.0254261 -0.39547285 -1.199827 -0.35775653 0.3332761 -0.5427389 0.1830703
-0.36016265 -0.48717207 -0.7182397 -0.1326161 -0.6962313 0.118601575 -0.5919428 0.07847989
-0.12415678 -0.12421067 -0.0041339532 -0.05044379 -0.28935722 -0.38750225 0.011611277 0.015680926
-0.4184451 -0.078173764 0.0010879714 -0.1341289 -0.29927152 -0.2660396 -0.70905024 -0.3195208
00000000: 2f44 7b3e 2b9a 56be 54bd 893e 637e a5bb
00000010: f14f 03be 424d 88bd 405b 54bd c90b 04bf
00000020: 57e6 7dbe 5442 00bf 4a3e 56bc d438 47be
00000030: fc49 3abf 9e96 30bf 3323 78be 513d e9be
00000040: 2fca 983e 4492 a0bf 5b56 00bf 8cfe 05bf
00000050: 6328 ae3a 06ff c33c d691 23bf 306f dcbe
00000060: a844 9cbf bc71 b1bd 2eec 1cbf 9068 babe
00000070: 3bb8 753d ba5a b83d a774 4ebf 4796 fdbe
00000080: ec58 1ebf 2a41 83bf 6b7b cabe ee93 99bf
00000090: dd2b b7be 2aa3 aa3e f0f0 0abf c876 3b3e
000000a0: 3d67 b8be 9e6e f9be 8fde 37bf 84cc 07be
000000b0: 373c 32bf 62e5 f23d 9089 17bf 11ba a03d
000000c0: e945 febd 2a62 febd 1d76 87bb 269e 4ebd
000000d0: a126 94be b266 c6be 3a3d 3e3c 4975 803c
000000e0: 703e d6be 9119 a0bd 439a 8e3a 1659 09be
000000f0: 1e3a 99be 5836 88be 5184 35bf 3b98 a3be

gat_init.module_1.module.running_mean f4 [64]
-0.49085814 -1.1209604 -0.12411638 0.24213287 -0.31283858 1.2942274 0.7440119 1.3730379
-1.4178494 2.3146145 -0.28274873 -0.3645264 0.85449314 -0.4380556 0.43600318 0.7877153
-0.58971775 1.4716547 -0.06402578 -0.6406634 -0.5254667 1.4414152 0.79379034 -0.21416953
0.09186439 1.8086773 0.37265295 -0.19257678 -0.38977772 0.80071676 0.5875238 0.3049259
0.038801495 -0.74432194 1.1963074 1.6861197 -0.13420695 -0.9875001 0.008987721 0.103389174
-0.6437803 -0.67963874 -2.8100307 0.57713026 1.4211076 -0.1879054 0.8394857 -1.1435469
-0.6628007 0.13867277 0.462482 0.13479133 -0.8575404 -0.30367047 -0.37770134 1.245838
-0.30227518 0.28690428 -0.30598277 -0.054039344 0.46125346 -0.19872823 0.20708051 -0.51259905
00000000: c251 fbbe a17b 8fbf bb30 febd aef1 773e
00000010: 612c a0be 3ea9 a53f 9077 3e3f b5bf af3f
00000020: 177c b5bf a522 1440 71c4 90be 34a3 babe
00000030: 10c0 5a3f d348 e0be cf3b df3e b6a7 493f
00000040: bef7 16bf 2e5f bc3f f31f 83bd 8402 24bf
00000050: fc84 06bf 4b80 b83f d835 4b3f 424f 5bbe
00000060: 6623 bc3d bd82 e73f 5ecc be3e d932 45be
00000070: f290 c7be c6fb 4c3f f667 163f 3f1f 9c3e
00000080: 51ee 1e3d e28b 3ebf 9a20 993f c5d2 d73f
00000090: 8c6d 09be cecc 7cbf 3c41 133c b4bd d33d
000000a0: c9ce 24bf cefc 2dbf 8bd7 33c0 cfbe 133f
000000b0: dbe6 b53f 466a 40be 89e8 563f bf5f 92bf
000000c0: 4fad 29bf 3c00 0e3e 71ca ec3e bd06 0a3e
000000d0: c587 5bbf b27a 9bbe 1262 c1be 9f77 9f3f
000000e0: d0c3 9abe 1ee5 923e c6a9 9cbe 5c58 5dbd
000000f0: 6a29 ec3e 6a7f 4bbe ea0c 543e b139 03bf

gat_init.module_1.module.running_var f4 [64]
0.0015257571 0.0014036872 0.002047874 0.01847652 0.00091477757 0.00089243386 7.751687e-05 0.0013040834
0.0020639615 0.0013396876 0.0016570175 0.0009540479 0.005009374 0.004007795 0.02002911 0.003263444
0.004523351 0.00067687954 0.00451483 0.0002523325 0.0007060236 9.361372e-05 0.00029510495 0.026914418
0.0058507123 0.0006402314 0.025057307 0.017610185 0.0005917454 0.0004135567 0.00014748126 0.0047376896
0.0020065613 0.0020991345 0.0004940049 0.0011213552 0.0063970536 0.00049924845 0.0063209515 0.011473089
0.0010107398 0.0023610524 0.0015491243 0.00051546266 0.00093547493 0.0005074118 0.0006148154 0.00078919396
0.0012454498 0.004221419 0.007918918 0.0017231549 0.0025641092 0.07535658 0.049593236 0.00029431886
0.0024653098 0.0015263421 0.00028653294 0.003510552 0.0010282913 0.00048588746 0.0043437076 0.020739494
00000000: eafb c73a edfb b73a a035 063b 125c 973c
00000010: afcd 6f3a 39f2 693a 8d90 a238 c7ed aa3a
00000020: 8743 073b 7598 af3a 4830 d93a 1219 7a3a
00000030: ad25 a43b d253 833b 1714 a43c 81df 553b
00000040: 9e38 943b 9e70 313a 24f1 933b 7f4b 8439
00000050: 7114 393a 7c52 c438 51b8 9a39 a07b dc3c
00000060: 55b7 bf3b 34d5 273a fb44 cd3c 3c43 903c
00000070: 5d1f 1b3a a4d2 d839 33a5 1a39 9f3e 9b3b
00000080: 8380 033b a291 093b 1c80 013a 70fa 923a
00000090: 609e d13b ffdf 023a fc1f cf3b a0f9 3b3c
000000a0: cd7a 843a e3bb 1a3b fc0b cb3a 1d20 073a
000000b0: a93a 753a d403 053a 902b 213a e9e1 4e3a
000000c0: 5c3e a33a d453 8a3b 59be 013c 7cdb e13a
000000d0: 9d0a 283b 8d54 9a3d 4722 4b3d cf4e 9a39
000000e0: 0991 213b 8b0f c83a cd39 9639 4a11 663b
000000f0: bbc7 863a b6be fe39 a955 8e3b dfe5 a93c

gat_hidden.0.module_0.att f4 [1, 16, 4]
-0.044460177 0.39710066 0.011948307 0.43689516 0.15785927 -0.17597046 -0.005944295 -0.4029577
-0.23922499 0.10130572 0.031987973 0.007754501 0.17279662 0.931921 0.14252453 -0.21028697
-0.03551493 -0.0076183877 0.0040230183 -0.06529914 0.4277551 0.35483953 0.30874443 -0.2187404
0.007434183 -0.100395486 0.06534839 -0.1778148 0.18473855 -0.02919984 -0.027983282 0.010249551
-0.004882293 -0.014262196 -0.06314114 0.27607328 -0.11313128 -0.031126268 0.70643663 -0.236011
0.8036512 -0.053656098 -0.08703511 0.6104688 -0.20006481 -0.10225943 -0.64560205 -0.20719627
-0.01845041 0.395235 -0.00087018526 0.1610528 -0.008569326 0.23125295 -0.12485615 0.34110278
-0.42543903 0.32246014 0.3649803 0.15649875 0.24146858 0.46100003 0.013132854 -0.15571031
00000000: e01b 36bd c750 cb3e d5c2 433c b9b0 df3e
00000010: dca5 213e 9a31 34be 5cc8 c2bb 7950 cebe
00000020: 65f7 74be 6079 cf3d d205 033d 7819 fe3b
00000030: 99f1 303e 6092 6e3f f3f1 113e 7855 57be
00000040: 1a78 11bd aba3 f9bb 86d3 833b 8ebb 85bd
00000050: b702 db3e 87ad b53e c013 9e3e 7cfd 5fbe
00000060: 729a f33b 269c cdbd 60d5 853d 1515 36be
00000070: 1a2c 3d3e 8134 efbc 323d e5bc bced 273c
00000080: a4fb 9fbb fcab 69bc 2450 81bd 7a59 8d3e
00000090: 5fb1 e7bd 84fc febc 08d9 343f deac 71be
000000a0: 16bc 4d3f 7fc6 5bbd 773f b2bd af47 1c3f
000000b0: cadd 4cbe 646d d1bd 2d46 25bf 422b 54be
000000c0: 5025 97bc 3e5c ca3e 251d 64ba 06eb 243e
000000d0: 5c66 0cbc 93cd 6c3e 95b4 ffbd 06a5 ae3e
000000e0: 25d3 d9be 7f19 a53e b3de ba3e 3541 203e
000000f0: 8a43 773e 3208 ec3e 2f2b 573c 8672 1fbe

gat_hidden.0.module_0.bias f4 [64]
-0.01910926 0.0009145723 0.004627708 0.011137334 -0.06449467 0.0131996125 0.015905047 0.021826137
-0.0004137077 -0.0002457793 0.06729977 -0.007867651 -0.14521292 -0.040833846 -0.10620577 0.020078445
-0.046967857 -0.011724153 -0.040085495 0.04263915 -0.01351301 0.033705633 -0.003908341 0.0024208967
0.021156875 0.0038927428 -0.009869058 0.016643232 0.012658078 -0.007126224 -0.002716153 0.0132383965
-0.0022237801 -0.019984676 -0.023716388 -0.006817357 0.020098142 0.005209468 -0.0042539933 0.0040165763
0.001007852 -0.00026974644 -0.00065087783 0.004472275 -0.049325544 0.01922744 0.0076313005 -0.0045397324
-0.009464592 -0.011713003 0.006641472 0.036192797 -0.0277193 -0.00084634346 0.02191138 0.03628027
0.006654144 -0.0029529298 0.0001647983 -0.010850783 0.008097226 -0.004831286 0.017738016 0.0071847416
00000000: 068b 9cbc e8bf 6f3a 07a4 973b 5d79 363c
00000010: c815 84bd 3043 583c 4d4b 823c bacc b23c
00000020: e8e6 d8b9 f0db 80b9 76d4 893d 52e7 00bc
00000030: b2b2 14be 6441 27bd 6982 d9bd 8d7b a43c
00000040: 5e61 40bd a916 40bc b030 24bd 64a6 2e3d
00000050: ac65 5dbc eb0e 0a3d 8a11 80bb e8a7 1e3b
00000060: 2f51 ad3c 631d 7f3b d4b1 21bc 6357 883c
00000070: d463 4f3c 1a83 e9bb 7c01 32bb dce5 583c
00000080: d7bc 11bb e7b6 a3bc df48 c2bc 2364 dfbb
00000090: dca4 a43c 2fb4 aa3b 1565 8bbb 7c9d 833b
000000a0: e719 843a c16c 8db9 ac9f 2aba 298c 923b
000000b0: 9509 4abd dd82 9d3c fd0f fa3b 09c2 94bb
000000c0: 6011 1bbc e5e7 3fbc b5a0 d93b e63e 143d
000000d0: 9613 e3bc 26dd 5dba 7f7f b33c 9f9a 143d
000000e0: 010b da3b f185 41bb b5cd 2c39 7cc7 31bc
000000f0: 3aaa 043c c44f 9ebb 514f 913c fb6d eb3b

gat_hidden.0.module_0.lin_l.weight f4 [64, 64]
0.69218713 0.3247619 0.66656405 0.76001126 0.24725851 0.38814512 0.17997071 -0.17877716
0.25139126 0.12106487 0.42052153 0.28660232 0.022907734 -0.05928643 -0.24532859 0.16627714
-0.4785507 -0.74871504 -0.6883215 -0.5021597 -0.41048974 -0.32223442 0.3044867 0.4331732
-0.065280356 0.6279041 0.07567209 0.622681 -0.49305668 -0.3378211 0.22048974 0.37604997
-0.08004966 0.065567285 -0.016787281 0.03249623 -0.20117886 -0.145236 -0.32301214 -0.012675592
0.10897715 -0.28078046 0.0061045736 -0.03531333 -0.0336647 0.045276836 0.10804562 0.2510952
0.32179633 0.387012 0.27822578 0.12727304 -0.48477897 0.37840456 -0.2328744 -0.27855593
-0.11623256 0.16959162 0.34764934 0.31416124 -0.18865724 0.18733202 -0.07489789 -0.020083975
0.15928723 0.102434136 0.049960185 -0.0387655 0.33309928 0.35677162 0.03388078 -0.013663397
0.12670398 0.18089156 0.14958099 0.15810962 -0.055116255 -0.1517169 -0.33517718 -0.05471088
-0.483573 0.595504 0.9353287 0.92503995 -0.081299074 -0.17410536 0.4497034 0.33761397
-0.17179047 0.7499192 -0.32034108 0.6155804 0.24114735 0.092391804 -0.019737082 0.20229068
0.3616561 0.059467304 -0.14758715 0.19729416 -0.22074658 -0.33988848 0.64120764 0.7351194
-0.06189896 0.29622746 -0.07847594 0.32630914 -0.028446157 0.13519394 0.21186751 0.07173942
0.016217731 0.0091987755 -0.06993747 0.0035457276 0.11140801 -0.17727476 0.4936233 0.1738384
-0.060605776 -0.003972048 0.21249223 0.18323769 0.062456977 0.16519222 0.29053298 0.10156609
0.297126 0.20736913 0.17725952 0.14463073 0.13619594 0.08232093 0.12306445 -0.20502792
0.30777463 0.003282537 0.11599692 -0.048154887 -0.121223845 0.12852308 -0.1416025 0.071082085
-0.41866735 0.12725267 0.18639211 0.015497349 -0.043968223 0.016600963 0.12027217 0.056564894
-0.057855226 0.0776773 -0.020691367 0.1811736 -0.40042722 -0.13039011 -0.22554721 0.15770808
0.026809486 -0.0025662147 -0.14335127 -0.11770207 -0.31348014 0.06481936 -0.26866522 0.046349283
0.09255143 -0.0318015 -0.3058706 -0.10372461 -0.051547144 0.36777595 0.08765725 0.017123165
0.40555978 0.14072396 0.33555824 0.27794787 -0.15301847 -0.039242618 0.0009948873 -0.048139073
-0.009797765 0.27177292 -0.04414179 0.22792935 0.12280614 -0.35376775 0.00756597 -0.13631912
-0.09681295 0.0026690806 0.06269529 -0.05057431 -0.2354424 -0.24903682 -0.0006920715 -0.06806685
-0.08189775 -0.08934247 -0.18041268 0.053027634 -0.14689273 -0.22091497 -0.13221724 -0.23496944
-0.57809705 1.3418062 1.099611 1.3920263 0.17999138 -0.023675276 -0.25980663 -0.5888676
-0.39441162 0.3308601 -0.22170731 0.2559796 -0.0057398295 -0.29773393 -0.11182474 -0.3130036
-0.17071183 -0.23906435 -0.11166613 0.05627998 -0.45487326 -0.37001693 0.87525994 1.0623659
0.15788731 -0.14508562 -0.30539194 0.1270387 0.04617719 0.19367328 0.07888148 0.11318272
0.008210314 -0.1944413 -0.26714447 -0.09391086 -0.1477794 -0.43707556 -0.21546686 0.008107045
-0.0091427965 0.033777103 -0.17977475 0.09152621 0.09050532 -0.27948183 -0.014697252 0.062655404
00000000: 2d33 313f 3147 a63e f1a3 2a3f 1990 423f
00000010: 5631 7d3e f5ba c63e 3e4a 383e 5c11 37be
00000020: 5bb6 803e dcf0 f73d 994e d73e 8abd 923e
00000030: 00a9 bb3c 54d6 72bd 6b37 7bbe 8e44 2a3e
00000040: 9904 f5be caab 3fbf d635 30bf 8a8d 00bf
00000050: b62b d2be e9fb a4be aee5 9b3e e1c8 dd3e
00000060: b5b1 85bd 53be 203f f8f9 9a3d 0668 1f3f
00000070: ed71 fcbe e3f6 acbe 10c8 613e 9f89 c03e
00000080: 13f1 a3bd 2448 863d 7b85 89bc c41a 053d
00000090: d501 4ebe bfb8 14be d961 a5be 49ad 4fbc
000000a0: 692f df3d 75c2 8fbe e008 c83b b6a4 10bd
000000b0: ffe3 09bd 3474 393d 0647 dd3d 8d8f 803e
000000c0: 7dc2 a43e 7026 c63e 9c73 8e3e dd53 023e
000000d0: f334 f8be 3ebe c13e a076 6ebe e29e 8ebe
000000e0: 560b eebd 6da9 2d3e 18ff b13e bed9 a03e
000000f0: 5d2f 41be f7d3 3f3e 1164 99bd 2687 a4bc
00000100: 311c 233e fdc8 d13d 0da3 4c3d 93c8 1ebd
00000110: fd8b aa3e c5aa b63e 93c6 0a3d 71dc 5fbc
00000120: b0be 013e a33b 393e c22b 193e 7de7 213e
00000130: 95c1 61bd ad5b 1bbe 589c abbe 8418 60bd
00000140: e196 f7be f372 183f b471 6f3f 6bcf 6c3f
00000150: 2180 a6bd ad48 32be 863f e63e bddb ac3e
00000160: d7e9 2fbe b4fa 3f3f bf03 a4be ad96 1d3f
00000170: 55ef 763e ea37 bd3d a9af a1bc 4a25 4f3e
00000180: fd2a b93e fd93 733d 1621 17be 7b07 4a3e
00000190: 640b 62be dd05 aebe 2f26 243f c930 3c3f
000001a0: c489 7dbd 20ab 973e feb7 a0bd fe11 a73e
000001b0: ea07 e9bc 4870 0a3e ccf3 583e 1eec 923d
000001c0: 0cdb 843c 76b6 163c 603b 8fbd 705f 683b
000001d0: e229 e43d 8487 35be 31bc fc3e b202 323e
000001e0: c33d 78bd f427 82bb 9097 593e a9a2 3b3e
000001f0: e3d2 7f3d 2628 293e bdc0 943e e201 d03d
00000200: e620 983e 9358 543e 8583 353e 141a 143e
00000210: f376 0b3e e097 a83d 3709 fc3d d7f2 51be
00000220: a394 9d3e d51f 573b cb8f ed3d 0f3e 45bd
00000230: 3544 f8bd 8e9b 033e 3f00 11be 7c93 913d
00000240: 915b d6be 864e 023e 93dd 3e3e 98e8 7d3c
00000250: 0618 34bd befe 873c 4151 f63d 97b0 673d
00000260: 9af9 6cbd 4715 9f3d f180 a9bc 9285 393e
00000270: cc04 cdbe fc84 05be d9f5 66be 3a7e 213e
00000280: 919f db3c f02d 28bb adca 12be c80d f1bd
00000290: 7880 a0be 03c0 843d 7d8e 89be bfd8 3d3d
000002a0: 9b8b bd3d 4a42 02bd 129b 9cbe 916d d4bd
000002b0: 1923 53bd 214d bc3e a585 b33d e145 8c3c
000002c0: 88a5 cf3e f119 103e 4ace ab3e 2f4f 8e3e
000002d0: e0b0 1cbe debc 20bd e166 823a 7a2d 45bd
000002e0: ce86 20bc d225 8b3e 06ce 34bd 5066 693e
000002f0: c981 fb3d 0c21 b5be f5eb f73b 3d97 0bbe
00000300: de45 c6bd beeb 2e3b 6366 803d 0227 4fbd
00000310: d017 71be 8203 7fbe 226c 35ba a266 8bbd
00000320: 02ba a7bd 2ff9 b6bd 1abe 38be 8133 593d
00000330: 0c6b 16be 8937 62be f563 07be d49b 70be
00000340: 2bfe 13bf 4ec0 ab3f 0ec0 8c3f eb2d b23f
00000350: a94f 383e a7f2 c1bc 6005 85be 07c0 16bf
00000360: 52f0 c9be 7f66 a93e 3e07 63be c20f 833e
00000370: 2e15 bcbb 9570 98be 5f04 e5bd 0242 a0be
00000380: 15cf 2ebe 49cd 74be 36b1 e4bd d685 663d
00000390: 26e5 e8be dc72 bdbe 0911 603f 9bfb 873f
000003a0: 36ad 213e 5391 14be 555c 9cbe 6f16 023e
000003b0: 4b24 3d3d 4a52 463e 9d8c a13d 58cc e73d
000003c0: 8e84 063c 9f1b 47be 29c7 88be 5654 c0bd
000003d0: 7c53 17be 5ec8 dfbe 58a3 5cbe 69d3 043c
000003e0: abcb 15bc dc59 0a3d df16 38be 1872 bb3d
000003f0: da5a b93d 3e18 8fbe becc 70bc 7a51 803d

gat_hidden.0.module_0.lin_l.bias f4 [64]
0.19021825 0.20602296 0.19964692 -0.44299138 0.46489042 -0.2599132 -0.83322996 -0.06692911
-0.18419082 0.42011613 -1.1797624 -0.10061173 -0.19167873 0.368391 -0.38515306 0.076503776
-1.695339 -1.6275104 -1.300492 -0.5215505 -0.04823779 -0.17280151 0.09118477 -0.62189275
-1.3223186 -0.58732 -1.8595215 -0.20331861 -0.11277573 -0.9256495 -1.9982927 0.05661107
-0.49864522 0.5414009 -0.079940006 0.07052413 -0.86598635 -1.1531136 -0.09979979 0.05141295
-0.357478 -0.90711725 -0.10790983 -0.22828628 -0.5699882 0.5498091 0.3183837 -0.51371264
-1.4293944 0.1836773 -0.55791694 0.03795095 0.65771115 -0.055249218 0.509164 -0.27216023
0.003398822 -0.24607572 -0.2961188 -0.28135914 -0.3451462 -0.44375476 -0.2993993 0.38665056
00000000: 93c8 423e aff7 523e 3e70 4c3e c4cf e2be
00000010: 1e06 ee3e 5813 85be 8f4e 55bf 2112 89bd
00000020: 859c 3cbe 7619 d73e 7402 97bf 860d cebd
00000030: 6e47 44be bf9d bc3e c832 c5be 03ae 9c3d
00000040: de00 d9bf 4352 d0bf 8676 a6bf 5584 05bf
00000050: fd94 45bd e1f2 30be 15bf ba3d 5d34 1fbf
00000060: bc41 a9bf 9b5a 16bf cd04 eebf c132 50be
00000070: f6f6 e6bd 5ef7 6cbf 0ec8 ffbf 02e1 673d
00000080: 6d4e ffbe 4099 0a3f 96b7 a3bd f46e 903d
00000090: 48b1 5dbf 3a99 93bf d563 ccbd 6396 523d
000000a0: 5b07 b7be d638 68bf d4ff dcbd e1c3 69be
000000b0: bfea 11bf 4ac0 0c3f 3003 a33e ac82 03bf
000000c0: 65f6 b6bf e715 3c3e a5d3 0ebf 7572 1b3d
000000d0: c25f 283f 014d 62bd 9258 023f 9658 8bbe
000000e0: c5be 5e3b 46fb 7bbe e29c 97be 4e0e 90be
000000f0: 01b7 b0be d333 e3be dd4a 99be 10f7 c53e

gat_hidden.0.module_0.lin_r.weight f4 [64, 64]
-0.2784114 -0.25884563 -0.3057198 -0.04011376 -0.3501175 -0.023659708 -0.34213373 0.122593224
-0.31965232 0.11182452 -0.37258765 -0.19216666 0.31431648 0.20043606 -0.043450132 0.162547
-0.7721954 0.4044247 0.5180732 0.8655073 -0.52686286 -0.29786983 0.99662423 0.4442244
0.17805211 -0.15177836 0.016914273 0.06150231 -0.48019576 -0.37241852 0.4826215 1.0257365
-0.16108185 0.22164045 0.34348074 0.2671461 -0.47460344 -0.80625373 1.025402 0.5979561
-0.23238404 0.42929295 0.17848235 0.12770677 0.4806409 -0.2173487 0.20353937 -0.33074757
-0.16579437 -0.28342083 -0.2609661 -0.28896478 -0.22240125 0.470913 -0.40989327 -0.59576404
0.33761498 -0.20734131 -0.37662965 -0.11932353 0.24042626 -0.46907935 0.86835796 0.5100812
-0.04866508 -0.039786734 -0.13298897 -0.15490393 0.09717522 -0.14973219 0.035164643 -0.027980372
0.04465498 -0.16080211 -0.17732403 -0.07643145 -0.4776297 -0.42755654 -0.059759755 -0.059806243
-0.44156197 -0.9442424 -0.41344494 -0.3852731 -0.12886633 0.1521811 -0.32863915 -0.40528694
-0.39161035 0.11179135 -0.06341955 0.04157904 0.124442786 0.17907275 -0.53433955 -0.31283528
-0.12945993 -0.54982007 -0.41491735 -0.47787988 -0.31062013 -0.20097412 -0.11313078 -0.039753627
-0.08306152 -0.40357453 -0.44231653 -0.3409762 -0.283268 0.24608381 -0.39487556 -0.1732062
-0.03718038 0.049364753 0.15480284 -0.09692695 0.00999534 -0.4323282 0.07722341 0.08394741
-0.40480268 -0.049079645 0.18996108 0.07472533 -0.42050365 -0.031805802 -0.18386541 -0.45182982
0.46137336 0.39966375 0.66044915 0.48995242 0.14064164 0.26633456 0.34035417 -0.6006883
0.1837911 -0.21247208 0.6293831 0.2355604 -0.4656713 -0.41812155 -0.20612313 -0.35791335
-0.37658003 -0.1919683 -0.008353986 0.17845693 0.13608404 -0.0023961235 -0.06498369 -0.22759461
-0.24591962 0.17049184 -0.113409035 0.2669818 0.48779368 0.69414836 -0.30756867 -0.37356207
0.09088966 -0.46990198 -0.3547444 -0.3154252 -0.25022206 0.07725715 -0.16715564 0.19188248
0.26254258 -0.31419876 -0.4779806 -0.4723501 -0.5355088 0.44690657 -0.31532702 0.41313687
0.15315062 0.32877427 0.1830217 0.09460579 0.39029467 -0.5932783 0.6157033 0.66400856
-0.38357404 0.2702274 0.016630419 0.28695413 -0.30512163 -0.057771083 -0.3005816 -0.33275378
-0.07216809 0.6536015 0.062026337 0.23375809 0.49552673 0.47135904 0.46141472 -0.34431636
0.5131047 -0.6072061 0.5829486 0.5395285 0.15891583 -0.18066432 -0.37033343 -0.25265342
-0.39135432 0.41894117 -0.12612174 0.1294664 0.48976746 0.50633335 -0.33240053 -0.38005129
0.07421565 0.5553612 0.06896191 0.22105443 0.68174994 0.6993108 -0.28807512 -0.7373314
0.36213154 0.059794128 -0.087706275 0.0087 0.5864977 -0.12080857 -0.14042851 -0.24265453
0.5691751 -0.23288961 -0.08132957 -0.5497474 -0.3540541 0.27807114 -0.41845727 0.6397506
0.513009 0.38704208 0.3041238 0.49504283 0.6372993 -0.8114477 0.9643875 1.0209825
-0.15256816 0.58848536 0.39010668 0.61298037 -0.5258952 0.56980515 -0.19541024 -0.2732909
00000000: f08b 8ebe 6a87 84be 4e87 9cbe 534e 24bd
00000010: 9a42 b3be 01d2 c1bc 272c afbe 2812 fb3d
00000020: 78a9 a3be 4104 e53d cfc3 bebe 56c7 44be
00000030: 17ee a03e 1c3f 4d3e c4f8 31bd b972 263e
00000040: 99ae 45bf c110 cf3e 72a0 043f e391 5d3f
00000050: 7ce0 06bf 6582 98be c422 7f3f 6171 e33e
00000060: 4b53 363e c96b 1bbe cd8f 8a3c d9e9 7b3d
00000070: 38dc f5be a4ad bebe 2a1a f73e 554b 833f
00000080: a4f2 24be b7f5 623e b5dc af3e 60c7 883e
00000090: 39ff f2be a566 4ebf 5f40 833f a713 193f
000000a0: 15f6 6dbe 49cc db3e 14c4 363e 90c5 023e
000000b0: 9016 f63e a890 5ebe a06c 503e bf57 a9be
000000c0: 00c6 29be 891c 91be 599d 85be 31f3 93be
000000d0: 27bd 63be 821b f13e 88dd d1be fe83 18bf
000000e0: dfdb ac3e 4851 54be 9ad5 c0be e55f f4bd
000000f0: 4d32 763e 2b2b f0be b54c 5e3f ae94 023f
00000100: 0955 47bd 6af7 22bd 432e 08be 239f 1ebe
00000110: cd03 c73d 6553 19be cd08 103d 1837 e5bc
00000120: 24e8 363d 4fa9 24be 6e94 35be 1888 9cbd
00000130: e18b f4be b1e8 dabe a5c6 74bd 64f7 74bd
00000140: 6914 e2be dfb9 71bf 0eaf d3be 8442 c5be
00000150: 89f5 03be 5dd5 1b3e 6443 a8be c581 cfbe
00000160: 2781 c8be ddf2 e43d 1ce2 81bd c94e 2a3d
00000170: dcdb fe3d d95e 373e 7aca 08bf f22b a0be
00000180: 2591 04be 02c1 0cbf 0c70 d4be acac f4be
00000190: 9a09 9fbe 29cc 4dbe 1cb1 e7bd b3d4 22bd
000001a0: 281c aabd 52a1 cebe 5077 e2be 6f94 aebe
000001b0: 8108 91be 65fd 7b3e 212d cabe f75c 31be
000001c0: 744a 18bd b232 4a3d a384 1e3e a381 c6bd
000001d0: 7fc3 233c 1f5a ddbe 4f27 9e3d 9fec ab3d
000001e0: 4c42 cfbe bd07 49bd 2885 423e 9809 993d
000001f0: 414c d7be cd46 02bd 3747 3cbe 3d56 e7be
00000200: 2139 ec3e baa0 cc3e 3213 293f 0bdb fa3e
00000210: 5d04 103e 015d 883e e742 ae3e b5c6 19bf
00000220: bc33 3c3e 4892 59be 401f 213f bf36 713e
00000230: 786c eebe 0714 d6be f111 53be 6b40 b7be
00000240: 19cf c0be 5793 44be 28df 08bc 6abd 363e
00000250: 9d59 0b3e 4808 1dbb 2b16 85bd 900e 69be
00000260: 5ad2 7bbe 6a95 2e3e ff42 e8bd d7b1 883e
00000270: 18c0 f93e b5b3 313f a479 9dbe 8743 bfbe
00000280: 5c24 ba3d fe96 f0be 0fa1 b5be 697f a1be
00000290: 1b1d 80be ff38 9e3d d92a 2bbe d77c 443e
000002a0: fb6b 863e a9de a0be e0b9 f4be dfd7 f1be
000002b0: 1b17 09bf f0d0 e43e 8b72 a1be ad86 d33e
000002c0: 84d3 1c3e 1a55 a83e 0a6a 3b3e aec0 c13d
000002d0: b4d4 c73e 16e1 17bf bb9e 1d3f 77fc 293f
000002e0: d163 c4be 3f5b 8a3e 843c 883c a7eb 923e
000002f0: e738 9cbe 5fa1 6cbd d5e5 99be b45e aabe
00000300: ddcc 93bd 6e52 273f 540f 7e3d 485e 6f3e
00000310: aeb5 fd3e f955 f13e 8d3e ec3e 3c4a b0be
00000320: d45a 033f dc71 1bbf 1f3c 153f 8a1e 0a3f
00000330: d5ba 223e 1100 39be 589c bdbe ca5b 81be
00000340: 985f c8be 757f d63e 0f26 01be d792 043e
00000350: cdc2 fa3e 109f 013f 6730 aabe 1596 c2be
00000360: 60fe 973d 272c 0e3f e73b 8d3d 185c 623e
00000370: 2a87 2e3f 0806 333f 957e 93be c0c1 3cbf
00000380: 4e69 b93e b0ea 743d 599f b3bd 728a 0e3c
00000390: b724 163f 7c6a f7bd 7ecc 0fbe 6e7a 78be
000003a0: 76b5 113f 9d7a 6ebe 1e90 a6bd 3fbc 0cbf
000003b0: 9446 b5be 575f 8e3e 0840 d6be b2c6 233f
000003c0: 8f54 033f 612a c63e 1db6 9b3e 4176 fd3e
000003d0: 0c26 233f 09bb 4fbf 19e2 763f 8eaf 823f
000003e0: d43a 1cbe faa6 163f 10bc c73e 48ec 1c3f
000003f0: 11a1 06bf c0de 113f 9f19 48be c9ec 8bbe

gat_hidden.0.module_0.lin_r.bias f4 [64]
0.09440858 0.22215366 0.16183722 -0.6026262 0.42846557 -0.13829368 -0.8806939 0.09910293
-0.23374672 0.34055108 -1.1427693 -0.1581735 -0.16729482 0.38306943 -0.41111284 0.01443492
-1.5244313 -1.6953459 -1.4028248 -0.6602285 -0.17704861 -0.19161592 -0.07375901 -0.49177486
-1.3328443 -0.56383604 -1.8053906 -0.18182936 -0.21594518 -0.72098124 -1.9390584 -0.069952846
-0.37876457 0.47554642 -0.16327442 0.1880201 -0.92490274 -0.98214114 -0.12704404 0.07450653
-0.38343713 -0.65976095 -0.11794663 -0.17087774 -0.5398379 0.4228149 0.24903542 -0.44608963
-1.2789435 0.10261161 -0.63674676 0.06014587 0.52313733 -0.0336458 0.43661562 -0.30675453
0.040666215 -0.43425408 -0.13770385 -0.17916517 -0.42184672 -0.46255288 -0.27186015 0.25600886
00000000: 4959 c13d 407c 633e a8b8 253e b645 1abf
00000010: d75f db3e dc9c 0dbe 2875 61bf 7af6 ca3d
00000020: 4d5b 6fbe b65c ae3e 4446 92bf 3cf8 21be
00000030: 554f 2bbe ad21 c43e 627d d2be 7180 6c3c
00000040: 9120 c3bf 1801 d9bf c38f b3bf bc04 29bf
00000050: 3b4c 35be f736 44be f70e 97bd eac9 fbbe
00000060: a49a aabf 8f57 10bf 0a17 e7bf 7a31 3abe
00000070: bc20 5dbe 3a92 38bf 1133 f8bf 7043 8fbd
00000080: 6eed c1be d27a f33e 6931 27be 5788 403e
00000090: 6dc6 6cbf 9a6d 7bbf d517 02be e196 983d
000000a0: df51 c4be 18e6 28bf 018e f1bd 93fa 2ebe
000000b0: d132 0abf 327b d83e 2403 7f3e dc65 e4be
000000c0: 6cb4 a3bf 0926 d23d d601 23bf 845b 763d
000000d0: 54ec 053f 2ed0 09bd 158c df3e ee0e 9dbe
000000e0: 9e91 263d 8d56 debe 3d02 0dbe 1377 37be
000000f0: 4bfc d7be bbd3 ecbe 4131 8bbe 9813 833e

gat_hidden.0.module_0.lin_edge.weight f4 [64, 2]
0.85182285 -0.9484987 0.71493614 0.8343572 -0.66466546 0.060997896 0.25598925 -0.3708832
-0.21572024 0.286064 0.14645033 0.19639082 -0.7669572 0.22054571 0.33940163 0.063958235
-0.6127065 0.19882928 1.0040969 -0.84373206 -0.33408996 -0.6333896 0.7111992 0.13216832
0.69220793 -0.13560042 -0.12599364 0.0719558 -0.14948653 0.33297834 0.5312509 -0.9683973
-0.7364369 -0.371325 1.1065307 -1.5864022 -1.4730206 0.33855447 1.7344288 -1.8596612
0.13520865 -0.7656652 0.19735053 -0.9243685 -0.10579146 -0.01003551 0.23392776 0.13257256
-0.34724933 0.6493855 -0.14046703 -0.22450091 0.2442258 -0.1295159 -0.28598008 0.6126909
0.6721594 0.06766881 1.6303797 -0.83133125 1.2942443 -0.66711944 -0.16751097 -0.15003227
0.084104866 -0.8779284 0.11841484 0.5172107 -0.53845763 -0.02074448 -0.3470684 0.063746564
0.82521945 -1.362002 -0.77309084 -0.7782318 -1.7876595 0.88189256 1.8907986 -0.7986386
-1.7587826 0.64053875 1.1345547 -0.59353006 0.14499365 -0.7773344 0.67739654 0.40442115
-0.39322713 -0.66287047 0.4302967 -0.19822355 0.112256214 0.5353391 0.28953522 -0.31015366
1.3178464 -0.5814636 -0.15300903 0.6242776 -0.2587508 0.09478265 0.13267687 0.1028646
0.36905804 1.0131341 -0.006181847 -0.09694492 0.9815039 0.61184233 -0.82885647 -0.3119051
1.4381472 -0.39754793 -1.2673516 -0.49345553 -0.906188 0.03288656 -1.0714571 -0.28951252
-1.2158421 -0.06664382 -1.4531252 -0.13724726 0.28650656 -0.5461693 1.2635363 -0.079177395
00000000: 1011 5a3f d0d0 72bf 0e06 373f 6f98 553f
00000010: 8427 2abf eed8 793d 0611 833e 67e4 bdbe
00000020: c4e5 5cbe fb76 923e 13f7 153e ad1a 493e
00000030: 4f57 44bf bcd6 613e 0dc6 ad3e 89fc 823d
00000040: 55da 1cbf e799 4b3e 3f86 803f d3fe 57bf
00000050: d70d abbe d225 22bf 2711 363f 2257 073e
00000060: 8a34 313f d6da 0abe 7a04 01be 905d 933d
00000070: ff12 19be 237c aa3e 0f00 083f e3e8 77bf
00000080: 2187 3cbf 4f1e bebe cca2 8d3f 3a0f cbbf
00000090: f08b bcbf 0357 ad3e c301 de3f 6109 eebf
000000a0: 2374 0a3e a202 44bf 4216 4a3e 6aa3 6cbf
000000b0: 31a9 d8bd fb6b 24bc c28a 6f3e 1ac1 073e
000000c0: aaca b1be 213e 263f 97d6 0fbe 91e3 65be
000000d0: 5416 7a3e d19f 04be fb6b 92be 50d9 1c3f
000000e0: a312 2c3f f295 8a3d 48b0 d03f 20d2 54bf
000000f0: cca9 a53f 57c8 2abf ff87 2bbe 0fa2 19be
00000100: 2c3f ac3d eabf 60bf 7b83 f23d ec67 043f
00000110: 5cd8 09bf 54f0 a9bc f3b2 b1be 8f8d 823d
00000120: 9541 533f 1556 aebf 48e9 45bf 333a 47bf
00000130: 07d2 e4bf b6c3 613f b005 f23f 9473 4cbf
00000140: ca1f e1bf 59fa 233f 1739 913f 96f1 17bf
00000150: 3779 143e 63ff 46bf dc69 2d3f 4a10 cf3e
00000160: 1155 c9be e1b1 29bf d94f dc3e 1dfb 4abe
00000170: 96e6 e53d fc0b 093f f63d 943e 76cc 9ebe
00000180: 31af a83f ccda 14bf 66ae 1cbe a8d0 1f3f
00000190: fc7a 84be 681d c23d 72dc 073e adaa d23d
000001a0: 2df5 bc3e 61ae 813f 1791 cabb 0f8b c6bd
000001b0: d743 7b3f b3a1 1c3f f02f 54bf 06b2 9fbe
000001c0: 3515 b83f 678b cbbe 9438 a2bf 34a6 fcbe
000001d0: f0fb 67bf 0fb4 063d 8225 89bf fc3a 94be
000001e0: b7a0 9bbf 8e7c 88bd 0200 babf 8c8a 0cbe
000001f0: fdb0 923e c0d1 0bbf 8fbb a13f c227 a2bd

gat_hidden.0.module_1.module.weight f4 [64]
0.1746864 0.473477 0.0006258685 1.5083998 1.1249199 0.32469395 0.08192303 0.5002152
0.26008093 0.5944346 1.0108861 -0.0052784253 1.1672512 1.8104581 1.0120625 1.1890712
1.1851364 0.39131284 0.74334514 0.83015525 0.41253805 -0.0003244872 0.5369103 0.5901129
0.9004063 0.28886956 0.56178004 0.90003633 0.6558715 0.43618238 0.07692081 0.00036227878
-0.01440236 0.7431763 0.17870173 0.022682965 1.1173917 0.8736937 0.7717909 1.0876632
0.5503735 1.1283514 1.1845558 0.8473795 1.2749773 0.31114185 0.9209029 -0.00476304
0.537479 0.5085366 0.00204674 0.85151714 0.36292416 0.994548 0.8320494 0.6889004
0.0051892083 0.5195638 0.49008176 0.09993221 0.56711817 0.7582882 0.41691482 0.17919485
00000000: fee0 323e 946b f23e 5311 243a 3f13 c13f
00000010: 60fd 8f3f 493e a63e 43c7 a73d 1a0e 003f
00000020: 5429 853e de2c 183f b764 813f a4f6 acbb
00000030: 7d68 953f 17bd e73f 448b 813f 7c33 983f
00000040: 8db2 973f 285a c83e de4b 3e3f 0e85 543f
00000050: 3038 d33e ef1f aab9 f472 093f a411 173f
00000060: 0781 663f b6e6 933e d1d0 0f3f c868 663f
00000070: 32e7 273f 4c53 df3e a888 9d3d 3cf0 bd39
00000080: e0f7 6bbc cd40 3e3f 96fd 363e a0d1 b93c
00000090: b106 8f3f 64aa 5f3f 1794 453f 8c38 8b3f
000000a0: 47e5 0c3f d26d 903f 869f 973f dded 583f
000000b0: 7532 a33f fc4d 9f3e 4bc0 6b3f 4713 9cbb
000000c0: 3998 093f 742f 023f 9922 063b 07fd 593f
000000d0: 32d1 b93e b39a 7e3f 3101 553f c75b 303f
000000e0: 3c0a aa3b 2202 053f ffeb fa3e 42a9 cc3d
000000f0: a82e 113f 2d1f 423f dc75 d53e db7e 373e

gat_hidden.0.module_1.module.bias f4 [64]
-0.09609447 -0.30542466 -0.0075950944 0.3204605 -0.115717635 -0.5066481 -0.17024796 -0.5243333
-0.21439047 -0.059911545 -0.48302028 0.0028427825 0.055507928 0.15032305 0.43209141 -0.0006612161
-0.2681557 -0.22017449 -0.03993096 -0.37663776 -0.30395046 -0.0033641944 -0.28022456 -0.5252627
-0.37369367 -0.26185066 -0.48746055 0.011113043 -0.053747915 -0.42342123 0.007811867 0.007181323
0.0024104842 -0.43662763 -0.16342735 0.009303397 0.0124557745 -0.61895835 -0.68799984 -0.35533547
-0.4622519 -0.40098962 0.3457098 0.12511335 -0.41225064 -0.17808557 -0.07220273 -0.0041097216
-0.34980145 -0.24322723 0.0057311645 -0.37304518 -0.26970685 -0.23321447 -0.6128874 -0.31754187
-0.016497562 -0.5398522 -0.2542202 -0.13837712 -0.38875183 -0.94492316 -0.097571254 -0.124150924
00000000: 2dcd c4bd 9f60 9cbe 45e0 f8bb 6613 a43e
00000010: 5efd ecbd b1b3 01bf 7b55 2ebe b53a 06bf
00000020: 2d89 5bbe cf65 75bd 6f4e f7be fa4d 3a3b
00000030: 485c 633d 49ee 193e 163b dd3e 7655 2dba
00000040: b44b 89be 6c75 61be a58e 23bd aad6 c0be
00000050: 659f 9bbe d179 5cbb 9879 8fbe 9e77 06bf
00000060: c754 bfbe 4a11 86be 6e94 f9be 7b13 363c
00000070: c626 5cbd abca d8be b1fa ff3b 4e51 eb3b
00000080: 37f9 1d3b a88d dfbe 8059 27be 466d 183c
00000090: 4e13 4c3c 0e74 1ebf c220 30bf 88ee b5be
000000a0: 48ac ecbe 834e cdbe e000 b13e b71d 003e
000000b0: 8412 d3be 105c 36be 06df 93bd d8aa 86bb
000000c0: 2d19 b3be 8f10 79be 7ecc bb3b c7ff bebe
000000d0: 0417 8abe c6cf 6ebe 30e6 1cbf d994 a2be
000000e0: e525 87bc c133 0abf 2629 82be bbb2 0dbe
000000f0: 7b0a c7be 7ce6 71bf 70d3 c7bd d742 febd

gat_hidden.0.module_1.module.running_mean f4 [64]
-2.7661653 4.845947 -0.5357628 4.7541537 8.069073 -15.153243 -4.110428 -15.988859
-14.050698 6.1330867 3.751092 -1.1501689 -2.9553807 19.36991 -10.1736965 -1.4985104
0.9479123 -4.255513 1.1760918 -3.1206386 -6.8597913 -5.6174946 3.7276912 -14.5538
-0.90544295 -0.3950757 -1.9351621 -1.0646632 6.1768837 -8.073004 -6.022302 0.6182312
-0.7670727 1.9403952 1.2411464 -0.6133717 1.0917732 1.0271655 -2.6167881 -2.9473398
-13.07225 -9.641459 7.6666465 14.302314 1.149626 -3.466229 -4.3748193 -9.152036
-6.694756 8.619039 -0.46670222 -5.4895964 -0.12347236 -0.53422457 0.7022824 -0.59924257
-10.356921 -6.649788 -7.053242 -4.156271 -1.339174 -1.6831546 -1.7295243 -0.7818535
00000000: da08 31c0 ff11 9b40 c027 09bf 0722 9840
00000010: ec1a 0141 af73 72c1 a088 83c0 5ed2 7fc1
00000020: a9cf 60c1 3f42 c440 e411 7040 bc38 93bf
00000030: f524 3dc0 93f5 9a41 76c7 22c1 30cf bfbf
00000040: 61aa 723f 2a2d 88c0 2d8a 963f 8bb8 47c0
00000050: 6983 dbc0 84c2 b3c0 7e92 6e40 5ddc 68c1
00000060: 1ccb 67bf 5d47 cabe 64b3 f7bf e246 88bf
00000070: 08a9 c540 062b 01c1 b3b6 c0c0 6644 1e3f
00000080: e05e 44bf df5e f83f e3dd 9e3f ed05 1dbf
00000090: 39bf 8b3f 297a 833f 7579 27c0 37a1 3cc0
000000a0: f027 51c1 6b43 1ac1 2b55 f540 47d6 6441
000000b0: f226 933f b2d6 5dc0 85fe 8bc0 bd6e 12c1
000000c0: 713b d6c0 95e7 0941 98f3 eebe c6aa afc0
000000d0: 14df fcbd f1c2 08bf c8c8 333f f667 19bf
000000e0: f3b5 25c1 10cb d4c0 29b4 e1c0 2c00 85c0
000000f0: 0e6a abbf 9c71 d7bf 0d61 ddbf 8d27 48bf

gat_hidden.0.module_1.module.running_var f4 [64]
1.8278544 4.6672735 0.19712867 4.9810667 1.692175 3.282029 0.5552872 2.07471
29.407007 3.8559546 4.659678 0.4832482 0.25933456 4.152542 1.5664221 0.5894257
3.8528862 3.100453 3.8618002 3.660538 15.259595 11.152488 7.386755 62.102287
8.259811 3.4030814 7.275375 16.171719 13.535677 12.84505 4.509908 0.06971749
0.21340781 3.5614629 2.324648 4.4784694 9.5189085 12.78446 12.974508 31.836565
110.6609 28.293627 52.041695 175.33356 2.6646492 1.6497258 6.1690836 12.0707655
6.718664 21.352972 0.021765392 6.375812 2.0269134 2.3190684 2.7007709 2.9586062
75.47795 23.239588 24.21052 6.8815913 5.513486 6.7536783 5.9302244 4.6506853
00000000: 22f7 e93f 4e5a 9540 19dc 493e e664 9f40
00000010: 3199 d83f c30c 5240 4d27 0e3f 0cc8 0440
00000020: 8d41 eb41 f6c7 7640 151c 9540 4f6c f73e
00000030: 80c7 843e a0e1 8440 8580 c83f 9ae4 163f
00000040: b095 7640 d26d 4640 bc27 7740 4146 6a40
00000050: 4d27 7441 9770 3241 4c60 ec40 be68 7842
00000060: 3028 0441 16cc 5940 dfcf e840 ae5f 8141
00000070: 2292 5841 5385 4d41 2b51 9040 0bc8 8e3d
00000080: 9487 5a3e 02ef 6340 08c7 1440 9f4f 8f40
00000090: 734d 1841 268d 4c41 9697 4f41 49b1 fe41
000000a0: 6152 dd42 5959 e241 b22a 5042 6455 2f43
000000b0: 9d89 2a40 372a d33f 2269 c540 db21 4141
000000c0: 4cff d640 e3d2 aa41 564d b23c a706 cc40
000000d0: f3b8 0140 9e6b 1440 6ed9 2c40 ce59 3d40
000000e0: b6f4 9642 adea b941 25af c141 ff35 dc40
000000f0: 7a6e b040 221e d840 66c4 bd40 6ad2 9440
