MSModel/best_model_ms_lin_cutoff.pt (torch, 134125 bytes, 8 tensors)

model.0.weight f4 [64, 41]
0	0x3cfef8de	0.031124528
1	0x3f075b68	0.5287385
2	0xbdebb2f9	-0.11508746
3	0xbea4c871	-0.32184175
4	0x3e9b76e8	0.30364156
5	0x3e1303e3	0.14356951
6	0xbd948654	-0.072521836
7	0x3dc3160d	0.0952569
8	0xbe1c7f09	-0.15282835
9	0x3e2e148c	0.17000026
10	0xbc80db82	-0.01572967
11	0x3da19b30	0.07890928
12	0x3c399061	0.0113259265
13	0xbc893759	-0.016750025
14	0x3e14e63b	0.14540951
15	0xbd47e44b	-0.0488017
16	0xbdb3f1e6	-0.08786373
17	0x3ca2b21f	0.019860325
18	0x3e85fda0	0.26170063
19	0xbea324f6	-0.31864136
20	0xbcf687cb	-0.030094048
21	0xbda33cc2	-0.07970573
22	0xbe115fc0	-0.14196682
23	0xbc04bc09	-0.008101472
24	0xbb9b6fa3	-0.0047435327
25	0xbd205acc	-0.03914909
26	0x3dd994d6	0.10624091
27	0xbc684d8b	-0.014178644
28	0xbce11770	-0.027476996
29	0x3cd2555a	0.025675464
30	0xbe283fff	-0.16430663
31	0xbebec869	-0.37262276
32	0x3f03eea6	0.51536024
33	0x3dd11475	0.1020898
34	0x3e305eab	0.17223613
35	0x3ecea67d	0.40361395
36	0xbeb27b23	-0.3485957
37	0x3d964e9d	0.07339213
38	0x3dc11cc3	0.09429314
39	0x3dddb0f4	0.10824767
40	0x3dcd97c4	0.100387126
41	0x3dde9d4b	0.10869845
42	0x3e8dc2da	0.27687722
43	0x3e352fb3	0.17693977
44	0x3eaea1ca	0.3410781
45	0xbec6a827	-0.38800165
46	0xbe933844	-0.28753865
47	0x3eaae31c	0.33376396
48	0x3e8561a7	0.26051065
49	0x3d23bd67	0.03997555
50	0xbbe96339	-0.007122424
51	0x3d0d2a4f	0.034464177
52	0x3dbd02be	0.09229039
53	0x3d2c31f5	0.04203983
54	0xbd5ca44f	-0.053867634
55	0x3c04ef68	0.0081137195
56	0x3c095c0c	0.008383762
57	0x3db49e77	0.08819287
58	0x3ce9ba20	0.028531134
59	0x3f093f2d	0.53612024
60	0xbee00a7c	-0.43758
61	0x3dbe6285	0.09296135
62	0x3df99bf1	0.121879466
63	0x3e0be1dd	0.13660379
64	0x3d61dfa9	0.05514494
65	0x3d69c90b	0.057076495
66	0x3deeb190	0.11654961
67	0xbd85daac	-0.06535849
68	0xbd7398b9	-0.05947182
69	0x3ddcb663	0.10776975
70	0x3e20106b	0.15631263
71	0xbdd6f054	-0.10495058
72	0x3ee34c1f	0.44394013
73	0xbe4dd59a	-0.20101014
74	0xbde2fef6	-0.11083786
75	0x3d41c7ee	0.04730981
76	0x3ebc69d0	0.3679948
77	0xbe1e89b6	-0.1548222
78	0xbd2ff7f5	-0.04296108
79	0x3eedde62	0.46458727
80	0xbe681bee	-0.22666904
81	0x3b4593ad	0.0030147836
82	0xbe298a61	-0.16556694
83	0xbeaa81d4	-0.33302176
84	0xbebec55e	-0.37259954
85	0xbe548adf	-0.207561
86	0xbf01286e	-0.50452316
87	0xbe79c30d	-0.24390812
88	0xbf17afd0	-0.59252644
89	0xbf0ae667	-0.54257816
90	0xbe02e03e	-0.12780854
91	0xbe4f343e	-0.20234773
92	0x3cf26ddb	0.029593399
93	0xbdb5d9aa	-0.08879407
94	0xbc187218	-0.009304546
95	0xbb6b3d51	-0.0035894702
96	0xbd2e30c5	-0.04252698
97	0xbd9c4878	-0.0763101
98	0xbda35e60	-0.07976985
99	0x3d5b7f99	0.053588483
100	0x3e483fdb	0.19555609
101	0x3ccb416c	0.024811469
102	0x3dd9f3a1	0.10642172
103	0x3e2ef54a	0.17085758
104	0xba02d529	-0.000499087
105	0x3e338e90	0.17534852
106	0x3e6d5de0	0.23180342
107	0x3e2672dc	0.16254753
108	0x3de184e7	0.11011677
109	0x3ceee1e8	0.029160455
110	0xbd9fa331	-0.07794798
111	0x3e40a491	0.18812777
112	0x3d4fb758	0.05071196
113	0x3d9650dc	0.073396415
114	0x3e5c93ea	0.215408
115	0x3e09713c	0.13422102
116	0xbdd8e067	-0.10589676
117	0xbdf70858	-0.12062138
118	0xbd3272ce	-0.043566518
119	0xbd71bda0	-0.05901873
120	0x3e897a5d	0.26851168
121	0xbd179a31	-0.037012283
122	0x3d298458	0.04138598
123	0x3e06fd85	0.13182648
124	0xbd9501fa	-0.072757676
125	0x3dfb35a6	0.12266092
126	0x3e106ff5	0.14105208
127	0x3e5bb509	0.21455778
128	0xbe5c6ebb	-0.21526615
129	0xbd66be2a	-0.0563337
130	0x3e3457eb	0.17611663
131	0xbdf3a128	-0.118959725
132	0x3e918efd	0.28429404
133	0xbe033c98	-0.12816083
134	0xbd1f1838	-0.038841456
135	0xbdd47b8c	-0.10375127
136	0x3e26a61e	0.16274306
137	0xbc345641	-0.011006893
138	0xbdf52796	-0.11970441
139	0x3d1d9b98	0.038478464
140	0xbd60c082	-0.05487109
141	0x3e2b5caa	0.16734567
142	0x3d66d69d	0.056357015
143	0xbd77ae90	-0.06046921
144	0xbd61f31f	-0.0551635
145	0x3cfcd447	0.03086294
146	0xbd372bb1	-0.0447194
147	0xbe268db2	-0.1626499
148	0x3dd8e07d	0.10589693
149	0x3d4ccb6d	0.04999869
150	0xbdd63e48	-0.10461098
151	0xbdbf7c8c	-0.09349927
152	0xbd9ecf28	-0.07754356
153	0xbe0b729a	-0.13617936
154	0x3d2243d3	0.039615463
155	0xbe592344	-0.21204859
156	0x3ca7f591	0.020502837
157	0x3db7199b	0.08940431
158	0xbac5c27b	-0.0015087867
159	0xbe03e59c	-0.12880558
160	0x3d854d6b	0.06508907
161	0x3ecb3cea	0.3969491
162	0xbe85d9d1	-0.26142743
163	0x3dceb9e5	0.1009405
164	0x3dbd9db4	0.09258595
165	0xbd8c2738	-0.06843418
166	0x3e3e588b	0.18588464
167	0xbef88060	-0.48535442
168	0xbdd9db1b	-0.10637494
169	0x3effdb10	0.4997182
170	0x3d38a676	0.045080625
171	0x3e989d55	0.29807535
172	0x3e422b7d	0.18961902
173	0x3e640471	0.2226732
174	0xbc5fc702	-0.013658287
175	0x3dbac602	0.09119798
176	0xbc55a2c3	-0.013039294
177	0x3e729aa9	0.2369181
178	0x3ec7628a	0.38942367
179	0xbebe8e29	-0.37217835
180	0xbddd1d9b	-0.107966624
181	0x3ee8044f	0.45315787
182	0xbeedaa41	-0.46418956
183	0x3f00f5b7	0.5037493
184	0x3d3ea88a	0.04654745
185	0xbd2ac575	-0.041692216
186	0xbd1ddf65	-0.038543124
187	0x3d651e9b	0.05593739
188	0xbb21e29c	-0.002470172
189	0x3d6ff8c5	0.058586854
190	0x3cb9f21d	0.022698456
191	0xbd0acdf9	-0.033887837
192	0xbe1500b2	-0.14551046
193	0xbb5b2ccb	-0.0033443447
194	0x3d50c19f	0.0509659
195	0x3ebf580b	0.3737186
196	0xbeb52070	-0.3537631
197	0xbc2eb9b4	-0.010664392
198	0x3dbfc061	0.09362865
199	0xbe4a3139	-0.1974534
200	0x3e82f3fe	0.25576776
201	0x3dfb970d	0.1228467
202	0x3e59f4d2	0.21284798
203	0xbe840147	-0.25782225
204	0xbd9046b4	-0.070447356
205	0x3dc2b5e1	0.09507347
206	0xbed86448	-0.4226401
207	0x3cafe243	0.021470195
208	0xbc6f5ee8	-0.01461003
209	0xbe74fa5f	-0.23923634
210	0xbec4ca4e	-0.38435596
211	0xbd04c8a2	-0.0324179
212	0xbdad148f	-0.08451187
213	0xbd40adc1	-0.047040705
214	0x3e089814	0.13339263
215	0x3bae5ec6	0.0053213565
216	0x3ddf2961	0.10896564
217	0x3c9e818d	0.019348884
218	0xbd9a357b	-0.07529732
219	0x3c4d4f29	0.01253108
220	0x3de05a27	0.10954695
221	0x3d5adaa2	0.05343116
222	0xbdbce149	-0.09222657
223	0x3dfac584	0.12244704
224	0x3cefafeb	0.029258689
225	0xbcf83a34	-0.03030119
226	0x3b5d3c8c	0.0033758013
227	0x3c894c4d	0.016760016
228	0x3d510ef0	0.051039636
229	0x3e304ee4	0.17217594
230	0xbdde94d7	-0.10868233
231	0x3dcda76a	0.10041697
232	0x3d9d5abd	0.076833226
233	0xbd4d7b0e	-0.050166182
234	0x3e04c15d	0.12964387
235	0x3e3cd057	0.1843885
236	0xbc492722	-0.012277396
237	0x3e56d9a4	0.20981461
238	0xbd5f467a	-0.05451057
239	0xbd8d4049	-0.06897027
240	0x3e8ceb8c	0.27523458
241	0xbe73966c	-0.2378785
242	0x3df1f114	0.1181356
243	0x3dcdd590	0.100504994
244	0xbdf499ca	-0.119433954
245	0xbd0c400c	-0.034240767
246	0x3b33f183	0.0027457185
247	0xbe51eccc	-0.20500487
248	0xbe4c48df	-0.19949673
249	0xbeae2fff	-0.34020993
250	0xbcdcf740	-0.026973367
251	0xbe9d6101	-0.3073807
252	0x3f302207	0.6880192
253	0xbd28c32f	-0.041201767
254	0x3e0afa16	0.13571963
255	0x3da5f66c	0.08103642

model.0.bias f4 [64]
0	0x3e75f13c	0.24017805
1	0xbe399ecf	-0.18126987
2	0x3ef121f4	0.47096217
3	0x3ed79121	0.42102912
4	0x3e80bca0	0.2514391
5	0x3ef6580b	0.48114046
6	0x3ef149d8	0.4712665
7	0xbe865a37	-0.26240703
8	0xbe3fad27	-0.18718396
9	0xbe85f38b	-0.2616237
10	0x3eb2193b	0.34784874
11	0xbe52c124	-0.2058149
12	0xbe01b995	-0.1266845
13	0xbeb4a1aa	-0.3527959
14	0xbdbc694b	-0.091997705
15	0xbeffae81	-0.49937823
16	0x3f0628e2	0.5240613
17	0xbc7189bb	-0.01474231
18	0xbe2937e8	-0.16525233
19	0x3e892b03	0.26790628
20	0xbe6972d1	-0.22797705
21	0xbe2d2ecc	-0.16912383
22	0x3e67b550	0.22627759
23	0x3ebc3a7b	0.36763367
24	0x3e86146e	0.26187462
25	0xbda7da13	-0.08195891
26	0xbee974c3	-0.45596895
27	0x3f07a590	0.52987003
28	0xbf02d053	-0.5109913
29	0xbea5bfde	-0.32372946
30	0xbeee1751	-0.46502164
31	0xbe2a69e7	-0.16641961
32	0x3e4cf998	0.20017087
33	0xbe2fd1cb	-0.17169873
34	0x3cb68e18	0.022284552
35	0x3f1ddff1	0.6166983
36	0x3ef5a77a	0.47979337
37	0xbe809860	-0.25116253
38	0x3a5db9dc	0.0008458176
39	0x3e8d7115	0.27625337
40	0x3ee2ba28	0.4428265
41	0x3ec78707	0.38970205
42	0xbdba769b	-0.091046534
43	0xbd469e38	-0.048490733
44	0xbed9c763	-0.42534932
45	0x3e92473d	0.28569975
46	0x3e8da631	0.27665856
47	0x3eee51be	0.4654674
48	0x3ec8e724	0.39238846
49	0xbe9cc9bb	-0.30622658
50	0x3d0b7870	0.034050405
51	0x3ed964f2	0.42459828
52	0xbe1a9c36	-0.15098652
53	0xbe281d36	-0.16417393
54	0xbe0ab1a6	-0.1354433
55	0x3e9471b5	0.28993002
56	0x3df960b6	0.12176649
57	0xbe228b5f	-0.15873478
58	0xbeb65bf8	-0.35617042
59	0x3e0dc429	0.1384436
60	0xbe5719ec	-0.21005982
61	0xbe83c1b4	-0.2573372
62	0xbcd386f0	-0.02582118
63	0xbdd1de07	-0.102474265

model.2.weight f4 [128, 64]
0	0xbd04ce79	-0.03242347
1	0xbd6dae11	-0.05802733
2	0xbd9ebaab	-0.07750448
3	0xbd75f0a0	-0.06004393
4	0x3bea6071	0.00715261
5	0x3c17bc26	0.009261167
6	0xbe211877	-0.15731989
7	0xbdeecd2f	-0.116602294
8	0x3c84b133	0.016197776
9	0xbd1ecc43	-0.038769018
10	0xbd3fad90	-0.04679638
11	0x3cc7c0f6	0.024384003
12	0x3ddafadc	0.10692379
13	0x3ac98057	0.0015373331
14	0xbe051721	-0.12997104
15	0x3ce844bc	0.028353088
16	0x3cdc44da	0.0268883
17	0xbe00637b	-0.12537949
18	0xbde2c137	-0.11072009
19	0xbc3bda1f	-0.011465578
20	0x3cfcea0b	0.03087332
21	0x3dbfd118	0.09366053
22	0x3c295f73	0.010337698
23	0xbb990d1a	-0.0046707513
24	0xbe02c0f1	-0.12768914
25	0xbded3c00	-0.1158371
26	0x3c735789	0.014852413
27	0xbe00c5cf	-0.12575458
28	0x3d204858	0.039131492
29	0x3dbf7187	0.093478255
30	0xbe06e88b	-0.13174646
31	0x3dd65d2d	0.104669906
32	0xbd1d5c18	-0.038417906
33	0xbd608030	-0.05480975
34	0x3da45088	0.080231726
35	0xbcb33759	-0.021876978
36	0x3da49609	0.080364294
37	0xbdf21335	-0.1182007
38	0x3d513534	0.05107613
39	0x3dce3ad9	0.10069818
40	0x3dc97009	0.09835822
41	0x3cb50a00	0.022099495
42	0xbcc3506b	-0.023842057
43	0x3c83eaa0	0.016103089
44	0xbdd76b94	-0.10518566
45	0x3aaf3a60	0.0013368838
46	0xbc8f1059	-0.01746385
47	0xbe034ac9	-0.12821497
48	0x3dd6abe2	0.10482003
49	0xbda68be4	-0.08132151
50	0x3d58fa39	0.052973006
51	0x3d54ab71	0.05192131
52	0xbdb8b476	-0.09018795
53	0xbdf2a4c7	-0.11847835
54	0x3d113aeb	0.03545658
55	0xbd78d381	-0.06074858
56	0xbbccad72	-0.006246262
57	0xbc098f16	-0.008395931
58	0x3d70a7c0	0.05875373
59	0x3cc39f5a	0.023879696
60	0xbd194314	-0.037417486
61	0x3d7a34f3	0.061085653
62	0xbd6df046	-0.05809047
63	0xbc2b5356	-0.010456881
64	0xbb11b0b8	-0.0022230577
65	0xbdc8e454	-0.09809175
66	0x3ef1da08	0.47236657
67	0x3d831182	0.06399824
68	0x3d4816a9	0.048849735
69	0xbd058fdd	-0.0326079
70	0x3da4a8ad	0.08039985
71	0x3e8f5a48	0.27998567
72	0xbe64b440	-0.22334385
73	0x3eb3e0c5	0.35132423
74	0xbe354d44	-0.17705256
75	0x3cf8e3c5	0.030382046
76	0x3f467303	0.77519244
77	0x3f15c576	0.58504426
78	0x3dce70cc	0.10080108
79	0x3f128f88	0.5725026
80	0x3dc3a183	0.0955229
81	0xbddd3859	-0.10801763
82	0x3e54368d	0.20723934
83	0x3ea93cb6	0.3305413
84	0x3e1d3451	0.15351988
85	0xbdccba30	-0.0999645
86	0xbe68e0f7	-0.22742067
87	0xbe4c9bbe	-0.19981286
88	0xbdce7198	-0.1008026
89	0x3eca9650	0.39567804
90	0x3e25f59d	0.16206975
91	0x3e9986f2	0.29985768
92	0xbea3673c	-0.319147
93	0xbf1c819e	-0.6113528
94	0xbe4e0355	-0.20118459
95	0x3d577397	0.05260047
96	0xbec2ea56	-0.3806941
97	0x3c27118c	0.010197055
98	0x3cfd9072	0.030952666
99	0x3ed7e421	0.42166236
100	0x3f028b1c	0.50993514
101	0x3e546126	0.20740184
102	0x3f0a32f2	0.53983986
103	0x3f00baf5	0.50285274
104	0x3d20e2e6	0.039278887
105	0xbf12c738	-0.57335234
106	0x3e8de7e2	0.27715975
107	0xbed77007	-0.42077658
108	0x3e27096c	0.16312188
109	0xbe8bcf56	-0.27306622
110	0xbe3198a1	-0.1734338
111	0xbf3054b9	-0.68879277
112	0xbe3b262e	-0.18276283
113	0x3ea405c9	0.32035664
114	0x3dd44e3f	0.10366487
115	0x3f223b55	0.63371783
116	0x3dc061fb	0.09393688
117	0x3d950559	0.072764106
118	0xbabb5024	-0.0014290852
119	0xbed38fa2	-0.4132052
120	0xbf131ce2	-0.57465947
121	0x3e019726	0.12655315
122	0x3eee1bd6	0.46505612
123	0xbebcf2e0	-0.3690405
124	0xbed28192	-0.4111448
125	0x3ea14e57	0.3150508
126	0xbdabfc10	-0.083976865
127	0x3e05b380	0.13056755
128	0xbd46c43f	-0.048527
129	0x3d8e269a	0.069409564
130	0x3e6be4ed	0.23036547
131	0xbe8018f2	-0.25019032
132	0x3e425535	0.18977816
133	0x3c67a8fc	0.01413941
134	0x3e0493dd	0.1294703
135	0x3e927d57	0.28611252
136	0xbda7d194	-0.08194271
137	0x3e217f57	0.15771233
138	0xbe7485d5	-0.23879178
139	0xbe43d3d7	-0.19123779
140	0xbe010043	-0.12597756
141	0x3ce5bba0	0.028043568
142	0x3d7b1805	0.061302204
143	0x401b7d51	2.4295237
144	0xbe30ee84	-0.17278486
145	0xbdf39a5f	-0.11894678
146	0x3d72f901	0.0593195
147	0x3df495c7	0.1194263
148	0xbe8753ac	-0.26431024
149	0x3c0be834	0.008539248
150	0x3dcda467	0.10041123
151	0x3dcaa213	0.098941945
152	0xbdf8dd92	-0.12151636
153	0x3ef5232d	0.478784
154	0xbe0ddfbf	-0.13854884
155	0x3ca8c783	0.020602947
156	0x3e3399e3	0.17539172
157	0xbc9320e6	-0.017960023
158	0x3f317918	0.693254
159	0x3e2ca5d1	0.16860129
160	0xbe2be974	-0.16788274
161	0x3def1781	0.11674405
162	0x3cb95a4e	0.022626068
163	0xbe36350b	-0.17793672
164	0x3e54765d	0.20748277
165	0x3eeb3eaf	0.4594626
166	0x3eccac4e	0.39975208
167	0xbda96a20	-0.08272195
168	0xbe1b5d16	-0.15172228
169	0x3d027b06	0.031855606
170	0x3ce6f71e	0.028194007
171	0x3d0ac199	0.033876035
172	0xbe06ae44	-0.13152415
173	0x3d071351	0.032977406
174	0xbed32d64	-0.41245568
175	0xbe04b0d8	-0.12958086
176	0xbe879e7b	-0.26488099
177	0xbc9ecbf8	-0.01938437
178	0xbe2b7566	-0.16744003
179	0xbeb2638a	-0.34841567
180	0xbda0caf4	-0.0785121
181	0x3e66f319	0.22553672
182	0x3e16960f	0.1470568
183	0xbc902c03	-0.017599111
184	0xbe3b1b75	-0.18272193
185	0xbd48b587	-0.049001243
186	0xbe9ac7d4	-0.30230582
187	0xbd8e09ad	-0.06935439
188	0x3e5221f4	0.20520765
189	0x3e24b0bf	0.16083048
190	0x3d314249	0.043276105
191	0xbe51be54	-0.2048276
192	0xbe25ec2a	-0.1620337
193	0xbedafb2b	-0.4276975
194	0xbe88b515	-0.26700655
195	0x3e036c82	0.12834361
196	0x3eab5c23	0.33468732
197	0xbb883981	-0.0041572456
198	0xbe205036	-0.15655598
199	0x3e41b483	0.18916516
200	0x3e799b1a	0.24375573
201	0x3e0f10e1	0.13971283
202	0xbebc6387	-0.36794683
203	0x3e2f0154	0.1709035
204	0xbe96c1a1	-0.29444602
205	0xbe1bb0dc	-0.15204185
206	0x3d74f93d	0.059808005
207	0xbe6fed4c	-0.23430365
208	0x3a4029b7	0.0007330435
209	0x3d0ac21f	0.033876535
210	0x3e78561c	0.24251598
211	0x3ecd991a	0.4015587
212	0x3cd23ace	0.025662806
213	0x3cad77e9	0.021175342
214	0x3e3d3bbf	0.18479823
215	0xbe1f3397	-0.15547024
216	0xbdba15f2	-0.09086217
217	0xbe06c694	-0.13161689
218	0xbdafedc6	-0.085902736
219	0x3df790c6	0.1208816
220	0xbc1af80a	-0.009458551
221	0x3de26550	0.1105448
222	0xbed260b0	-0.41089392
223	0x3d8c861e	0.06861518
224	0xbd961992	-0.07329096
225	0x3de4cbf0	0.111717105
226	0x3cc6f62d	0.024287308
227	0x3d00451b	0.031315904
228	0x3dca1cdf	0.09868788
229	0xbe1ace10	-0.15117669
230	0xbe9e8e64	-0.3096801
231	0xbdb79160	-0.08963275
232	0x3e5ac51f	0.21364258
233	0x3ea229a7	0.31672403
234	0xbe16c1f8	-0.1472243
235	0xbdea81eb	-0.11450561
236	0xbdf25112	-0.11831869
237	0x3e29d9bd	0.16586967
238	0xbe91cc73	-0.28476295
239	0x3d4391c6	0.047746442
240	0xbcba05ff	-0.022707937
241	0xbe78488c	-0.24246424
242	0x3e01a483	0.12660412
243	0x3daf02d1	0.08545459
244	0xbc305e48	-0.010764666
245	0xbdfa758c	-0.122294515
246	0xbca0b9dd	-0.019619877
247	0xbebf5ae1	-0.37374023
248	0xbe0fb2ae	-0.14033005
249	0x3cda339b	0.026635936
250	0xbe2ea1ee	-0.17053959
251	0x3f145853	0.5794727
252	0xbc8dd0f3	-0.017311549
253	0x3e018783	0.1264935
254	0xbe120334	-0.14259034
255	0x3e479ba8	0.19492972

model.2.bias f4 [128]
0	0xbe099c0d	-0.13438435
1	0x3d7c0b5a	0.061534263
2	0xbe6a82ad	-0.22901411
3	0x3e8c6d25	0.2742702
4	0xbe21121f	-0.15729569
5	0xbec2b561	-0.38029006
6	0xbed8ce5e	-0.42344946
7	0x3e266e5c	0.16253036
8	0x3c82d46e	0.015970435
9	0x3ec03c59	0.37546042
10	0xbe274a8f	-0.16337036
11	0xbde06df1	-0.1095847
12	0xbe0a8c38	-0.13530052
13	0xbe8578c9	-0.26068714
14	0xbe14219a	-0.14465943
15	0xbeca75d0	-0.3954301
16	0xbe0e4626	-0.13893947
17	0xbe809b6f	-0.25118586
18	0x3eaa4e45	0.3326284
19	0xbe163143	-0.1466723
20	0x3befd708	0.007319335
21	0x3dcc3a4c	0.09972057
22	0x3e7416a6	0.23836765
23	0x3e2ee3c0	0.17079067
24	0x3ec6cd9d	0.38828745
25	0x3e86b219	0.26307753
26	0x3e9f824d	0.311541
27	0xbde724d8	-0.11286324
28	0x3d113be2	0.0354575
29	0xbd04ced8	-0.032423824
30	0x3d7e3efa	0.062071778
31	0xbcb0429e	-0.02151614
32	0xbdb06ab9	-0.08614106
33	0xbd172af2	-0.03690619
34	0xbeaa6242	-0.3327809
35	0x3c8b29b8	0.016987666
36	0xbe83039d	-0.25588694
37	0x3db50872	0.088395014
38	0xbaacaac0	-0.0013173446
39	0xbdf6c0ea	-0.12048514
40	0x3e4ef654	0.20211154
41	0xbb2febe1	-0.0026843476
42	0xbe0e8094	-0.13916236
43	0xbdd0e308	-0.10199553
44	0x3cbd33e8	0.02309604
45	0xbe99cf61	-0.3004103
46	0x3dbb7893	0.09153857
47	0x3d886b75	0.06661121
48	0xbe7bd207	-0.24591838
49	0xbdd5c4f4	-0.104379565
50	0x3ee11804	0.43963635
51	0xbe2a5391	-0.1663344
52	0x3e9e7191	0.3094602
53	0x3ede429b	0.4341019
54	0xbbb905e0	-0.0056464523
55	0xbdb7d709	-0.089765616
56	0xbd49a566	-0.049230002
57	0xbda5fe56	-0.08105151
58	0xbd87c3bb	-0.066291295
59	0x3eb4293f	0.35187718
60	0x3e7863f9	0.24256887
61	0x3c558e6b	0.013034443
62	0xbca9ed55	-0.020743052
63	0xbde01c3b	-0.109428845
64	0x3b5aacda	0.0033367188
65	0x3ee867e1	0.45391753
66	0x3e9ece9a	0.31017
67	0x3eb4d0db	0.35315594
68	0xbe0873e7	-0.13325463
69	0x3c7d8a40	0.015474856
70	0xbd3db0ec	-0.046311304
71	0xbeaacad7	-0.3335788
72	0x3e74047b	0.23829834
73	0x3df241f7	0.11828988
74	0xbd49911a	-0.049210645
75	0x3ec01c98	0.37521815
76	0xbe97af60	-0.29625988
77	0xbe5e0aec	-0.21683854
78	0x3ec98f08	0.39366937
79	0x3d612a47	0.05497196
80	0x3e0b081e	0.13577315
81	0xbe40b6b9	-0.18819703
82	0xbde0861c	-0.10963079
83	0x3d06f5a0	0.03294909
84	0xbdee39d8	-0.116321266
85	0x3dae179d	0.085005976
86	0x3e8b9b5b	0.27266964
87	0xbe7fba7d	-0.24973483
88	0xbd8aa682	-0.0677004
89	0xbd5f4512	-0.05450923
90	0x3e3fde3d	0.18737121
91	0x3ebdef06	0.37096423
92	0xbd85aa0e	-0.06526576
93	0x3d6015f0	0.05470842
94	0xbe10ebb4	-0.14152414
95	0x3eac7265	0.33681026
96	0x3c7b27a9	0.01532928
97	0x3d202d11	0.03910548
98	0x3d3d3439	0.04619238
99	0xbd67f672	-0.056631513
100	0x3d635681	0.05550242
101	0xbe362d5a	-0.17790738
102	0x3eec72af	0.46181247
103	0xbe580ae9	-0.21097912
104	0xbe2f2875	-0.17105277
105	0xbd9a46b4	-0.07533017
106	0xbe1bad1f	-0.15202759
107	0xbe5bf986	-0.21481904
108	0xbe260653	-0.1621335
109	0x3e6dc0c5	0.23218067
110	0x3e8f182b	0.27948126
111	0xbed4ce6d	-0.4156374
112	0xbe06f378	-0.13178813
113	0x3cfc62ad	0.030808771
114	0xbeda09ce	-0.42585605
115	0x3e4fa001	0.2027588
116	0x3de81f40	0.113340855
117	0x3eb54e9d	0.3541154
118	0xbd29cd0b	-0.04145531
119	0x3e640cc9	0.22270502
120	0xbe5e5776	-0.21713051
121	0xbe255b23	-0.16148047
122	0x3e2aaa8a	0.16666618
123	0xbe1a65e5	-0.15077932
124	0x3e32881c	0.17434734
125	0xbd9e5af9	-0.077321954
126	0x3b4b9422	0.0031063636
127	0xbdf2ecd7	-0.1186158

model.4.weight f4 [128, 128]
0	0x3cb8f026	0.02257545
1	0xbe085309	-0.13312925
2	0xbe4e6876	-0.20157036
3	0x3e601c3b	0.21885769
4	0x3e05a0ea	0.13049665
5	0xbedda000	-0.43286133
6	0x3e42e9f0	0.19034553
7	0x3d8787b7	0.066176824
8	0x3df8a60f	0.12141048
9	0x3d1368cf	0.035988625
10	0x3d278fe3	0.040908705
11	0xbde322cd	-0.11090622
12	0xbc9a2256	-0.0188152
13	0xbf7c7aba	-0.98624766
14	0xbc3c2e26	-0.011485612
15	0x3cb08bc4	0.02155102
16	0x3da79f24	0.081846505
17	0xbecdb10e	-0.40174145
18	0xbe8888f7	-0.26666996
19	0x3ddf4b76	0.10903065
20	0xbd119179	-0.035539124
21	0x3db6d256	0.08926837
22	0xbc79ede0	-0.015254468
23	0xbd1cff21	-0.038329247
24	0x3ef7256f	0.48270747
25	0x3db338cf	0.0875107
26	0x3de824c7	0.1133514
27	0xbd99fea8	-0.07519275
28	0x3c10b79e	0.00883284
29	0x3e43a3ca	0.1910545
30	0xbec7cedc	-0.3902501
31	0x3c2e2986	0.010630017
32	0x3d130487	0.03589299
33	0xbe8f4058	-0.27978778
34	0xbd869192	-0.06570734
35	0xbe69bbe1	-0.22825576
36	0x3dc6faa4	0.09715775
37	0x3d10892a	0.03528706
38	0xbe62d523	-0.22151618
39	0xbd61129e	-0.054949395
40	0xbcbf00d2	-0.02331582
41	0xbd99f23f	-0.07516908
42	0xbf4a927e	-0.7912978
43	0xbd4f7e80	-0.05065775
44	0x3d61ea09	0.055154834
45	0x3d8772e6	0.06613712
46	0x3ec81b13	0.39083156
47	0xbd08338c	-0.033252284
48	0x3de905c0	0.1137805
49	0xbd5420de	-0.051789157
50	0x3ec1749e	0.37784284
51	0xbd34b7b0	-0.04412049
52	0xbcc76f9a	-0.024345208
53	0x3f307bc2	0.6893884
54	0xbe47bafe	-0.19504926
55	0x3d155e68	0.036466986
56	0xbd10bb07	-0.035334613
57	0x3efa616b	0.4890245
58	0x3dc1760a	0.09446342
59	0x3e8da462	0.27664477
60	0x3d736a59	0.059427593
61	0xbe2f49f5	-0.17118056
62	0xbe719f16	-0.23595843
63	0x3db70ca1	0.08937956
64	0x3da0220f	0.07818996
65	0x3e8f7d9a	0.28025514
66	0x3da89d5a	0.082331374
67	0x3ad005a8	0.0015870826
68	0xbee7480e	-0.4517216
69	0xbd9537c9	-0.07286031
70	0x3c876b3a	0.016530622
71	0x3dd49bfb	0.103813134
72	0x3a026f26	0.0004975669
73	0x3ede5360	0.43422985
74	0x3d6f648f	0.05844551
75	0x3edb98dd	0.42890063
76	0x3ff9b940	1.9509659
77	0x3e06acaa	0.13151804
78	0xbc1f14ea	-0.009709576
79	0x3e5f2aab	0.2179362
80	0xbd662bf3	-0.056194257
81	0xbe0bb86e	-0.13644573
82	0xbec6a50d	-0.387978
83	0xbd0f8208	-0.035036117
84	0xbdb5d245	-0.08877996
85	0x3dc432cb	0.095800005
86	0xbb6e596a	-0.0036369213
87	0x3d8114af	0.06302773
88	0x3dcacfd6	0.09902923
89	0xbcd03e34	-0.025420286
90	0xbe462180	-0.19348717
91	0x3e096faf	0.1342151
92	0xbc35ae1d	-0.011088875
93	0x3ccc498d	0.024937415
94	0xbd437e13	-0.047727656
95	0x3f381ba4	0.71917176
96	0xbd476153	-0.0486768
97	0x3efb77fd	0.4911498
98	0xbd17f984	-0.03710319
99	0xbe1ab54b	-0.1510822
100	0xbe66d4ae	-0.22542068
101	0x3dcc8b2b	0.09987482
102	0x3eaba007	0.3352053
103	0xbcd5a8f1	-0.026081534
104	0x3d710e00	0.058851242
105	0x3d19dfd5	0.03756698
106	0xbd63991b	-0.055565935
107	0xbe559e9f	-0.2086129
108	0xbda493b3	-0.08035984
109	0xbe76a677	-0.24086939
110	0xbe5e0320	-0.2168088
111	0xbd60cc97	-0.054882612
112	0x3b802e7e	0.0039117923
113	0xbddc4edf	-0.10757231
114	0xbdbe584e	-0.092941865
115	0x3c0c61c3	0.00856823
116	0xbde80e41	-0.11330844
117	0x3e065d14	0.13121444
118	0x3d4d5caf	0.050137218
119	0x3ee224b3	0.44168624
120	0x3e2d072b	0.16897266
121	0x3dad961b	0.08475896
122	0xbea4e83a	-0.32208425
123	0x3ea5c121	0.32373908
124	0xbddc610c	-0.10760698
125	0x3c8d7206	0.017266285
126	0x3d890e71	0.066922076
127	0x3dac9776	0.084273264
128	0xbd7f5640	-0.062338114
129	0xbe86ad96	-0.2630431
130	0xbe086d0b	-0.13322847
131	0xbe6d31a1	-0.23163463
132	0x3eb978d5	0.36225
133	0x3d9daff2	0.076995745
134	0xbe8c8756	-0.27447003
135	0xbe1bc22e	-0.15210792
136	0xbd66b60a	-0.05632595
137	0x3ec5a6b2	0.3860374
138	0x3e4b5751	0.19857527
139	0x3dae61e0	0.08514762
140	0xbd8ea050	-0.06964171
141	0xbf3317b9	-0.6995807
142	0x3d523999	0.05132446
143	0x3dad5a4a	0.08464487
144	0xbd132a12	-0.035928793
145	0xbf901972	-1.1257765
146	0xbe679471	-0.2261522
147	0xbdfc1314	-0.12308326
148	0xbd6d0fbf	-0.057876345
149	0xbcf6cbf2	-0.030126546
150	0xbe75b895	-0.23996194
151	0x3db57d53	0.08861794
152	0x3d90c8e5	0.070695676
153	0x3e8ee25d	0.27907076
154	0xbd6b665a	-0.057470657
155	0xbd970e31	-0.07375754
156	0xbd99c605	-0.07508472
157	0x3eb5aff5	0.35485807
158	0xbe5c26b5	-0.2149914
159	0x3e6d323a	0.23163691
160	0x3d1ba6c2	0.03800083
161	0x3e659a36	0.22422108
162	0xbe95c376	-0.29250687
163	0x3dd2628f	0.10272705
164	0xbcabaecb	-0.020957371
165	0xbd98de36	-0.074642584
166	0xbe4ba787	-0.19888125
167	0xbc82d269	-0.015969472
168	0x3e64ec3e	0.22355744
169	0xbd1a3a4f	-0.037653264
170	0x3eafc07d	0.34326544
171	0x3e042c58	0.12907541
172	0xbc9e395b	-0.019314459
173	0xbe7729ef	-0.2413709
174	0xbdc0f449	-0.09421594
175	0xbbc7f76d	-0.0061024935
176	0xbd12dc55	-0.035854656
177	0x3d65c837	0.056099143
178	0x3e9bf82a	0.30462772
179	0x3bb1d283	0.0054267063
180	0xbd89b29d	-0.06723521
181	0xbf3d3abf	-0.73917764
182	0x3dcee114	0.10101524
183	0x3d89dc50	0.067314744
184	0xbd6da8bf	-0.058022257
185	0x3ee57fd3	0.44824085
186	0xbeb1f40e	-0.3475651
187	0xbe1794d8	-0.14802873
188	0x3e6eaa10	0.23307061
189	0x3d7aad02	0.06120015
190	0xbe32131d	-0.17390104
191	0xbbd78b70	-0.0065779015
192	0x3d3d95d0	0.04628545
193	0x3ed34767	0.41265413
194	0xbe844f93	-0.2584196
195	0xbcbbcf6e	-0.022926059
196	0xbfa55d43	-1.2919086
197	0xbd12ca1e	-0.035837285
198	0xbbd86e19	-0.0066049215
199	0xbd8790c5	-0.066194095
200	0x3ec44473	0.38333473
201	0x3e00736b	0.12544028
202	0xbecaa25e	-0.39577
203	0xbbd800af	-0.0065918784
204	0x3facaf9e	1.3491094
205	0xbd1f60e1	-0.03891075
206	0x3e11881d	0.1421208
207	0x3d817df6	0.06322853
208	0xbe01ae89	-0.12664236
209	0xbe5abf33	-0.21361999
210	0x3d997d47	0.07494598
211	0x3d8a1441	0.067421444
212	0xbd08d29c	-0.033403978
213	0xbf05217e	-0.5200423
214	0xbe6aab47	-0.229169
215	0x3c2729ad	0.010202807
216	0x3bf6947b	0.0075250245
217	0xbd8dc61c	-0.06922552
218	0x3e2b724d	0.16742821
219	0x3e49eb65	0.19718702
220	0xbc86933f	-0.016427634
221	0xbc685d7d	-0.014182446
222	0x36b1ebcc	5.3024614e-06
223	0x3e0b002b	0.13574283
224	0x3ceeb68e	0.029139783
225	0xbe742b63	-0.23844676
226	0x3e36a777	0.1783732
227	0x3e778a82	0.2417393
228	0x3f10f0a4	0.5661719
229	0xbddfac22	-0.109215036
230	0x3c358e93	0.011081356
231	0x3ea58785	0.32329956
232	0xbea845f2	-0.32865864
233	0xbccbba16	-0.024869006
234	0x3c4594a3	0.012059364
235	0x3f1b594c	0.6068313
236	0xbd9f9524	-0.07792118
237	0x3c55f04f	0.013057782
238	0xbd1bca75	-0.038034875
239	0xbda12990	-0.078692555
240	0x3b998a99	0.0046857116
241	0x3e058be7	0.1304165
242	0xbd97404f	-0.07385313
243	0x3dbad151	0.09121955
244	0x3ead7c22	0.33883768
245	0x3ec1ff18	0.37889934
246	0x3d83c262	0.0643356
247	0xbccb3ffd	-0.024810785
248	0xbe771880	-0.2413044
249	0x3c8242d7	0.015901012
250	0xbdf53e91	-0.11974824
251	0x3e48b6b9	0.19600953
252	0xbd961712	-0.07328619
253	0x3d150512	0.03638179
254	0x3c6569df	0.014002292
255	0x3db254e8	0.08707601

model.4.bias f4 [128]
0	0x3e8ccb46	0.27498835
1	0x3e4ca379	0.19984235
2	0x3cab3b21	0.020902218
3	0xbe7a31a6	-0.24433002
4	0x3e6a9459	0.22908153
5	0x3eb1fd9f	0.3476381
6	0x3e13dc22	0.14439443
7	0x3d108cfe	0.03529071
8	0x3dcb728d	0.09933958
9	0x3e64e07d	0.2235126
10	0x3d8f93cb	0.07010611
11	0x3c7788a5	0.015108262
12	0xbde27a76	-0.11058514
13	0x3dcb3e76	0.09924023
14	0xbd8db7f0	-0.06919849
15	0x3d099511	0.033589426
16	0x3d05103b	0.03248618
17	0xbe8bae46	-0.27281398
18	0x3e988194	0.2978636
19	0xbe01d9e7	-0.1268078
20	0x3e4ba79e	0.1988816
21	0xbd370888	-0.04468587
22	0x3e8ff289	0.28114727
23	0xbe9093d8	-0.28237796
24	0x3ed51643	0.41618547
25	0x3c791fbd	0.015205321
26	0xbca729c7	-0.020405663
27	0xbd5d8c7b	-0.05408905
28	0x3e29b3c9	0.16572489
29	0xbe9a4852	-0.301333
30	0x3eb5511a	0.35413438
31	0x3dfca2f7	0.123357706
32	0xbe8be44d	-0.27322617
33	0x3e7de120	0.2479291
34	0x3ebd3c0b	0.36959872
35	0xbe311504	-0.17293173
36	0xbe29c7d3	-0.16580133
37	0xbdaad128	-0.08340675
38	0xbda2b8bb	-0.07945391
39	0x3ebfd081	0.37463763
40	0x3d58599e	0.05281984
41	0xbdf230c1	-0.11825705
42	0xbd8b9625	-0.06815747
43	0xbdc33248	-0.09531075
44	0xbd4ab079	-0.049484704
45	0x3df90d5c	0.12160751
46	0xbd4ca085	-0.04995777
47	0xbe069e3b	-0.13146298
48	0x3dad8a9d	0.08473704
49	0x3e2dbb3e	0.16965958
50	0xbea71f22	-0.3264094
51	0xbda1437f	-0.07874202
52	0xbd08d756	-0.033408485
53	0x3ea76de1	0.32701018
54	0xbe6e6dde	-0.23284099
55	0x3e86fcb5	0.26364675
56	0xbd8ce7ed	-0.06880174
57	0xbe3582c0	-0.17725658
58	0xbd6485ed	-0.055791784
59	0xbd1308d3	-0.035897087
60	0xbd106166	-0.035249136
61	0xbc9415dc	-0.01807683
62	0x3c35e65e	0.011102287
63	0x3bfb4b0f	0.00766886
64	0xbddb3d65	-0.107050695
65	0x3e27e0fc	0.16394418
66	0xbd85fd18	-0.065424144
67	0xbe36e932	-0.17862394
68	0xbd8a9bac	-0.06767973
69	0x3e8ba745	0.27276054
70	0xbd0dd01c	-0.034622297
71	0x3d699e78	0.057035893
72	0x3ec30548	0.38089967
73	0xbe86a091	-0.26294377
74	0x3e012bfb	0.12614433
75	0xbd87025d	-0.06592248
76	0x3e1d4ff3	0.1536253
77	0x3d08fce2	0.033444293
78	0xbdb0bd16	-0.08629815
79	0xbd387252	-0.0450309
80	0xbdf7e209	-0.1210366
81	0xbd8db3d1	-0.06919063
82	0xbe7094f6	-0.23494324
83	0x3b3f9c37	0.0029237398
84	0x3d2a9a0b	0.041650813
85	0xbc84c513	-0.016207254
86	0x3bcbdce8	0.0062214024
87	0x3d952160	0.072817564
88	0x3da27f07	0.07934385
89	0x3d9b41f0	0.07580936
90	0x3dcb9e19	0.09942264
91	0xbd37385e	-0.04473149
92	0x3c8fa611	0.017535241
93	0xbdb3a5bb	-0.08771845
94	0x3e8a59ba	0.2702158
95	0x3ede4e67	0.4341919
96	0xbc257f5b	-0.010101165
97	0x3dbefd5f	0.093256705
98	0xbd02b8d1	-0.031914536
99	0x3c318a59	0.010836207
100	0x3d28a057	0.041168537
101	0xbdc1127f	-0.09427356
102	0xbe835749	-0.2565253
103	0xbdb02bfe	-0.08602141
104	0xbc39a6c6	-0.011331266
105	0xbea7d810	-0.3278203
106	0xbd8ada79	-0.067799516
107	0x3f0aa497	0.54157394
108	0xbe699484	-0.2281056
109	0xbe00c323	-0.12574439
110	0x3cc4d64f	0.024027972
111	0xbe924f23	-0.28576002
112	0xbc2446b8	-0.010026626
113	0x3ea5af22	0.32360178
114	0x3ec7265c	0.38896453
115	0xbe01f1d8	-0.12689912
116	0xbda1ca56	-0.07899921
117	0xbe1600a2	-0.14648679
118	0xbd8be141	-0.06830073
119	0x3e912fdc	0.28356826
120	0x3c7cb918	0.015424989
121	0x3e1e116f	0.15436338
122	0xbdd1fccf	-0.102532975
123	0xbd84ed9e	-0.064906344
124	0x3e86324e	0.26210254
125	0xbb2d3e42	-0.0026434814
126	0x3e185ab5	0.14878352
127	0x3d0fcdea	0.035108484

model.6.weight f4 [41, 128]
0	0xbee54b68	-0.44784093
1	0x3f120db4	0.5705216
2	0xbd20d7c3	-0.039268266
3	0xbecaa854	-0.3958155
4	0x3d8795c8	0.066203654
5	0xbee6b871	-0.45062593
6	0xbd414ed0	-0.047194302
7	0xbd948012	-0.0725099
8	0xbe1d64fe	-0.15370557
9	0x3e97bb86	0.29635257
10	0x3e003ba2	0.12522748
11	0xbd96be07	-0.073604636
12	0xbe8a29d3	-0.26985034
13	0xbf28a635	-0.6587861
14	0xbe2c28b2	-0.16812399
15	0xbdad2572	-0.08454408
16	0x3af57212	0.0018726012
17	0xbf0de96e	-0.5543431
18	0xc00db374	-2.214078
19	0xbed69e05	-0.41917434
20	0x3d81abfb	0.06331631
21	0x3d4a82b9	0.049441073
22	0x3d622807	0.055213954
23	0xbcf16f27	-0.029471947
24	0xbf8d9dac	-1.1063743
25	0x3d810ef6	0.06301682
26	0x3e931cc7	0.28732893
27	0x3da5922a	0.08084519
28	0xc01f2011	-2.4863322
29	0xbeb9a05c	-0.36255157
30	0xbfb6003e	-1.4218824
31	0x3cba1e1b	0.022719434
32	0x3e55980a	0.2085878
33	0xc052e5f3	-3.295285
34	0xbe9ee460	-0.3103361
35	0xbe2de9a8	-0.16983664
36	0x3e3f5a9a	0.18686906
37	0xbd922d9d	-0.07137606
38	0x3cdb6866	0.02678318
39	0xbe8ca2c0	-0.27467918
40	0x3d9f4af9	0.07777972
41	0xbc974c8f	-0.018469123
42	0x3eb74ebf	0.35802266
43	0xbd8c8839	-0.0686192
44	0xbe01aac9	-0.12662806
45	0xbe868a8e	-0.26277584
46	0x3baaf87f	0.0052176113
47	0xbe55f36e	-0.20893642
48	0xbdd50439	-0.10401196
49	0xbd0075a7	-0.031362202
50	0xbf58013e	-0.84376895
51	0xbbaa52d4	-0.005197862
52	0xbe462558	-0.19350183
53	0xbf0a3c1c	-0.5399797
54	0xbf0c5e9b	-0.54831856
55	0x3e2fa67d	0.17153354
56	0x3d1127f2	0.035438485
57	0x3e4c4766	0.19949111
58	0xbe41594c	-0.1888172
59	0xbd260c5a	-0.040539123
60	0x3cf91e66	0.030410003
61	0xba59492a	-0.00082887954
62	0xbc96e4bd	-0.018419618
63	0xbda4bfa5	-0.08044366
64	0xbe6c80e1	-0.23096038
65	0x3db382cb	0.08765181
66	0x3c52aa12	0.012857931
67	0xbd4deeef	-0.050276693
68	0xc02a3802	-2.6596684
69	0xbe153d11	-0.14574076
70	0x3e777f95	0.24169762
71	0x3e0c6f1d	0.13714261
72	0xbe80f0b9	-0.25183657
73	0xbeeeb48b	-0.46622118
74	0xbe2488fc	-0.1606788
75	0xbdb838c7	-0.089952044
76	0x3e4d0b21	0.20023777
77	0xbda5ca7a	-0.0809526
78	0xbd21620f	-0.039400157
79	0xbc7d49ea	-0.015459517
80	0x3cb4ad80	0.022055387
81	0x3db2ca5e	0.08730005
82	0xbeed42de	-0.46340078
83	0xbcb47c84	-0.02203203
84	0x3bed5dce	0.0072438484
85	0xbe9bb857	-0.30414078
86	0x3d945d73	0.072443865
87	0xbf3da6f6	-0.7408289
88	0xbd57b944	-0.052666917
89	0xbe4adcd7	-0.19810806
90	0x3d53c465	0.05170097
91	0xbd907972	-0.07054414
92	0xbd89fef1	-0.06738079
93	0xbefc07a2	-0.49224573
94	0xbf8668f6	-1.0500782
95	0xc0304257	-2.754049
96	0x3cdcc352	0.026948605
97	0xbfac5af9	-1.3465263
98	0xbe8a2de5	-0.2698814
99	0x3e7a8050	0.2446301
100	0x3ee3adae	0.44468445
101	0x3df6d32d	0.12051997
102	0x3e0f3e8f	0.13988708
103	0xbd130737	-0.035895552
104	0xbd8d3625	-0.06895093
105	0xbf00a5ea	-0.50253165
106	0xbda705dd	-0.08155415
107	0x3e56c658	0.209741
108	0x3e5783c1	0.21046354
109	0x3d7b88fa	0.061409928
110	0x3c97c940	0.01852858
111	0x3d9c89d9	0.0764348
112	0x3d4a4188	0.0493789
113	0xbedf43a3	-0.4360629
114	0xbe53fe15	-0.20702393
115	0xbd2a7ff8	-0.041625947
116	0xbc51dd3c	-0.012809094
117	0x3dac53b0	0.084143996
118	0x3db90a60	0.09035182
119	0xbf31beb5	-0.6943162
120	0x3c27d081	0.010242582
121	0xbc0b968e	-0.008519782
122	0x3e48cb2c	0.19608754
123	0x3c78d952	0.015188532
124	0xbe724bd9	-0.23661746
125	0x3d9dd7e4	0.077071935
126	0xbe8fc1b5	-0.28077474
127	0x3c173f30	0.009231374
128	0xbfd2590e	-1.6433427
129	0xbf69eadd	-0.91374
130	0xbd70f62c	-0.058828518
131	0x3e90aedd	0.2825841
132	0x3e3fab2e	0.18717644
133	0xbede2984	-0.4339105
134	0xbe18d74f	-0.14925884
135	0xbc9bfd5f	-0.019041715
136	0xbd240e8c	-0.040052935
137	0xbeebbbe0	-0.46041775
138	0x3daa0e91	0.083035596
139	0x3da3549b	0.079751216
140	0xbd5bcef3	-0.05366416
141	0x3e019c9a	0.12657395
142	0xbd7fc610	-0.062444746
143	0x3d760265	0.060060877
144	0xbc5fb51a	-0.013654018
145	0xbf00f2b0	-0.5037031
146	0xbea6e69c	-0.32597816
147	0xbd90bc98	-0.070672214
148	0x3b81bc1e	0.003959193
149	0x3d5e4c89	0.05427221
150	0xbea3b1cc	-0.31971586
151	0x3c594e74	0.013263334
152	0xbef2e206	-0.47438067
153	0xbaf8a12a	-0.0018968929
154	0x3d357d4a	0.044308938
155	0x3c256e2a	0.010097066
156	0x3d46b818	0.04851541
157	0xbf278442	-0.65436184
158	0x3d7de52f	0.061986145
159	0xbde60c94	-0.11232868
160	0xbba23114	-0.004949698
161	0xbf40a0ae	-0.7524518
162	0xbfc27ace	-1.5193727
163	0xbcbce4d8	-0.02305834
164	0xbe4978d9	-0.19675006
165	0xbb804a3b	-0.003915099
166	0xbdbce71a	-0.092237666
167	0xbbe5f4a2	-0.007017688
168	0xbbd12bc4	-0.006383391
169	0x3ce7a3ce	0.02827635
170	0xbf937a13	-1.1521629
171	0x3d844844	0.06459096
172	0xbd6d4d50	-0.05793506
173	0x3e92301d	0.28552333
174	0x3daee99d	0.08540652
175	0x3e4d2368	0.20033038
176	0xbdc3ad5e	-0.095545515
177	0x3e07ebb1	0.13273503
178	0x3efa71e9	0.48915032
179	0x3d218529	0.039433632
180	0xbe52f0cb	-0.20599668
181	0xbf36d380	-0.71416473
182	0xbbee6091	-0.007274695
183	0x3e9961bb	0.29957375
184	0x3d4a4568	0.049382597
185	0x3c1c73c9	0.00954909
186	0xbce333cf	-0.027734665
187	0xbd3865bd	-0.0450189
188	0x3d5700fe	0.05249118
189	0xbd50a290	-0.05093628
190	0x3d5f2755	0.05448087
191	0x3d9ca38b	0.07648381
192	0x3e520ed7	0.20513473
193	0xbd54b05f	-0.051926013
194	0xbdbeed3e	-0.09322594
195	0xbfb2eb08	-1.3977976
196	0x3f8cf633	1.1012634
197	0x3d92a98f	0.07161247
198	0x3e5d7d22	0.21629766
199	0xbf9f5bc0	-1.2449875
200	0xbe4ca879	-0.19986142
201	0x3d90ac7d	0.070641495
202	0xbccf2c35	-0.025289634
203	0x3b14c701	0.0022701623
204	0x3e879303	0.2647935
205	0xbd372def	-0.04472154
206	0x3de4d920	0.11174226
207	0x3c933cac	0.017973267
208	0x3d9f3cee	0.07775293
209	0x3d66a778	0.056312054
210	0xbe037164	-0.12836224
211	0xbd84451c	-0.06458494
212	0xbd13e34b	-0.036105435
213	0xbf7a2a44	-0.9772074
214	0xbbcfda68	-0.0063431747
215	0x3dd7be12	0.105343
216	0x3d555fde	0.05209338
217	0x3d29778c	0.041373774
218	0x3da9d5e1	0.08292747
219	0xbdcde27b	-0.10052963
220	0xbda66e30	-0.08126485
221	0x3bcc8976	0.0062419726
222	0x3e2b807b	0.1674823
223	0xbf017ddb	-0.50582665
224	0xbd04e0e2	-0.032441027
225	0x3da84ff0	0.08218372
226	0xbd86356b	-0.065531574
227	0xbe956280	-0.29176712
228	0xbf6c1ae8	-0.92228556
229	0x3d5577b1	0.0521161
230	0xbf8e23ca	-1.1104672
231	0xbd0a35b1	-0.03374261
232	0x3e312f1a	0.17303124
233	0xbf8a2523	-1.0792583
234	0x3cf9ac82	0.030477766
235	0xbd8905b7	-0.06690543
236	0xbe992ed0	-0.29918528
237	0x3c9dc4ad	0.019258821
238	0xbc8439fb	-0.016140928
239	0x3e653274	0.22382528
240	0x3db58394	0.08862987
241	0xbf605738	-0.87633085
242	0xbe87e3cd	-0.26540986
243	0xbd55f609	-0.05223659
244	0x3d7cad99	0.061688993
245	0x3ea2704f	0.3172631
246	0xbd9046ab	-0.07044729
247	0xbe56fe62	-0.20995477
248	0x3d3bceca	0.045851506
249	0xbdcfeb26	-0.10152273
250	0x3e0afe88	0.13573658
251	0x3d33a630	0.04385966
252	0xbfb40308	-1.4063425
253	0xbd9f3b6f	-0.07775008
254	0x3b601e32	0.0034197685
255	0xbceb41e9	-0.028717952

model.6.bias f4 [41]
0	0x3ecd3025	0.40075794
1	0xbdec1d06	-0.11528973
2	0xbc8b64cd	-0.017015839
3	0x3d1d9e6f	0.038481172
4	0xbd25558d	-0.04036479
5	0xbcca125f	-0.024666963
6	0x3c08472c	0.00831775
7	0xbe15070c	-0.1455347
8	0xbe1f913d	-0.15582748
9	0xbe49a52d	-0.19691916
10	0xbe39bddc	-0.18138832
11	0xbe19ad22	-0.15007451
12	0xbdb47267	-0.08810883
13	0xbe318789	-0.17336859
14	0xbe8dd515	-0.2770163
15	0x3e4c590d	0.19955845
16	0xbe92248e	-0.28543514
17	0xbe420952	-0.18948868
18	0x3d0e3127	0.034714844
19	0xbe816082	-0.25268942
20	0xbea2cc72	-0.31796604
21	0xbe67550a	-0.22591034
22	0xbe3a9261	-0.18219902
23	0xbe273d8a	-0.16332069
24	0xbe46d738	-0.19418037
25	0xbe383dda	-0.17992344
26	0xbe6b1126	-0.2295576
27	0x3dfe0649	0.124035425
28	0x3eccde1f	0.40013215
29	0xbe7d35af	-0.2472751
30	0xbdcb35de	-0.09922384
31	0xbe02aaab	-0.12760417
32	0x3ce0fad5	0.027463356
33	0x3ea7a0cb	0.32739863
34	0xbd68aa3c	-0.056802973
35	0xbd78d838	-0.060753077
36	0x3cb6cdf3	0.022315001
37	0xbe8b8584	-0.27250302
38	0xbc29f7d7	-0.010374031
39	0xbe58452d	-0.21120138
40	0xbcc1c6b4	-0.02365432
